results/MPE/simple_spread/rmappo/check/wandb/run-20230405_234758-osarhpa0/files/actor.pt (torch, 147074 bytes, 22 tensors)

base.feature_norm.weight f4 [18]
000000 6a c3 6f 3f 7b 1e 51 3f e2 4b 79 3f c2 ca 68 3f
       0.93657553 0.81687135 0.97381413 0.90934384
000010 b6 b6 87 3f 77 49 8d 3f 78 b7 84 3f 0d 40 8a 3f
       1.0602634 1.1038045 1.036849 1.0800797
000020 29 da 87 3f 6b ea 8b 3f 19 f8 73 3f d6 f7 82 3f
       1.0613452 1.0930914 0.9530044 1.0231884
000030 bb 67 82 3f 96 8b 7a 3f 68 3a 7e 3f e8 f5 7f 3f
       1.0187906 0.9786924 0.9930787 0.999846
000040 16 86 82 3f 03 e8 77 3f
       1.019717 0.96838397

base.feature_norm.bias f4 [18]
000000 44 b1 b2 bc 42 8d 86 bb e6 36 34 3d be 17 1d bd
       -0.021813042 -0.0041061947 0.043997668 -0.03835272
000010 d0 44 50 3c d3 e9 38 3d 9b 6c a9 bc 6c 79 66 3c
       0.012711719 0.045144867 -0.02068167 0.014067035
000020 c1 c3 e0 39 2d e8 79 3c 68 c5 99 3c 23 01 08 bc
       0.00042870457 0.015253109 0.018770888 -0.008301052
000030 4e bb bc 3c 33 98 91 3c 14 af 81 3d 23 d4 2a bd
       0.023038533 0.01777277 0.063322216 -0.041706216
000040 81 ce 6c 3c d8 00 c1 bc
       0.014453531 -0.023559973

base.mlp.fc1.0.weight f4 [64, 18]
000000 f2 3f 89 3d 0d 11 fe bb 27 09 83 be 46 20 a3 bd
       0.0670165 -0.0077534975 -0.2559292 -0.0796514
000010 db 37 83 bd 04 0a 51 bd 5f 9e 86 3d e8 45 c2 3d
       -0.06407138 -0.051034942 0.06573176 0.0948599
000020 e2 8a e1 be 86 75 a7 3e 09 37 5a 3e 18 44 ac 3d
       -0.44051272 0.3270685 0.21310057 0.08411425
000030 34 59 3c 3d 6d f9 33 3e fd 6e 61 be 0a e0 91 be
       0.04598351 0.17575617 -0.22014995 -0.2849124
000040 5d a1 c3 be 23 db a9 bc 6b ef 0b 3c c4 9d 00 3b
       -0.38209048 -0.020734375 0.008540968 0.0019625286
000050 3d 39 a5 bd 75 c9 4c 3e c5 77 6e 3e c0 56 1d 3e
       -0.08067558 0.19998725 0.23287876 0.15365124
000060 19 61 8a be c2 8f 98 3d 8d 04 91 be 0d 5b b0 3d
       -0.27027205 0.074492946 -0.28323784 0.086111166
000070 1d f9 48 3e f2 c7 8e bc d6 23 db bd 95 de df bd
       0.19626279 -0.017429326 -0.107001945 -0.10931126
000080 c1 32 9f bd 53 f1 0d 3d 55 1c a2 3e 33 bd f1 bd
       -0.077733524 0.034653973 0.3166224 -0.11803665
000090 7c 63 1a be 18 fb 27 be d1 b7 a4 3c 87 04 35 3e
       -0.15077013 -0.16404378 0.020107182 0.17677508
0000a0 9c 70 ab 3d 08 b4 ab 3c f9 0f ae be 36 0a 46 be
       0.08371088 0.020959869 -0.3399656 -0.19339833
0000b0 a7 51 c5 be 9b d2 a0 bd c4 01 b6 3e 2a 50 03 3f
       -0.38538858 -0.0785267 0.35548222 0.51294196
0000c0 89 f8 93 3e 06 05 02 3e 74 7a 05 3e 97 49 bb bd
       0.28900555 0.12697229 0.13034993 -0.091448955
0000d0 02 36 22 bd dc 60 c7 3d 52 75 5b 3d 99 2c d5 bc
       -0.039602287 0.09735271 0.053578682 -0.026022242
0000e0 89 6c 41 bf 0a cd 99 be 2b 4f c4 3e c2 9b a4 3e
       -0.75556237 -0.30039245 0.3834165 0.32150084
0000f0 65 5b 08 3e 02 44 86 3e ea 13 3c bd 77 12 3c 3e
       0.13316114 0.2622376 -0.04591743 0.18366419
000100 b6 6a a0 be 83 1e 69 be 55 95 41 3e 00 f9 91 bd
       -0.31331414 -0.22765546 0.18904622 -0.07127571
000110 81 5b 89 3d 51 ad e5 bd e6 b7 a6 be 8e a0 a7 3d
       0.06706906 -0.11214698 -0.32562178 0.0818492
000120 75 6b 37 bd 0d 69 2d bb 44 37 94 be 28 e9 95 bd
       -0.044780213 -0.002646032 -0.28948414 -0.07319862
000130 ff 5a c7 be 21 8b 68 bd 6b 35 b5 bd 9e 7f 84 be
       -0.38936612 -0.05677331 -0.08848079 -0.25878614
000140 2c b0 83 3d 40 b8 cf bd 62 0b 8d bb 5e 23 1e 3d
       0.064300865 -0.10142565 -0.0043043355 0.038607948
000150 7e 6f aa bd 48 9c 0f 3e 67 d4 f2 bd 0a 8f b4 3e
       -0.08322047 0.1402446 -0.11856919 0.3526538
000160 4c e2 3a 3e b2 50 0f be 18 bc 15 3f 72 ee 3a be
       0.18250388 -0.13995627 0.58490133 -0.18255022
000170 b7 93 64 3e d6 a1 f6 bd c0 38 8e 3e 92 79 d0 bd
       0.22321974 -0.120425865 0.27777672 -0.10179438
000180 ef 69 20 3d f7 87 83 be 57 40 e5 be 4d f6 42 3e
       0.039163526 -0.2568967 -0.4477565 0.19039269
000190 bf bb 88 bd 6a d7 a3 3e 79 57 13 be 94 31 87 3d
       -0.06676435 0.32000285 -0.14388837 0.06601253
0001a0 94 1d be 3e 35 31 2e be f3 8d c5 3c 3d 4b cd 3c
       0.3713194 -0.17010958 0.024115538 0.02506029
0001b0 30 cb a5 3d 66 f3 99 be b2 09 f0 3d 87 3b 6e 3c
       0.080953956 -0.3006851 0.11720599 0.01454056
0001c0 7b ce 31 be 33 ed be bd c9 3f b8 3e c4 9c 52 be
       -0.17363922 -0.09322586 0.35986164 -0.20567614
0001d0 a8 fd 94 bd 0b 34 a6 3e c5 84 2b 3e 9f 52 6a be
       -0.072749436 0.3246158 0.16749866 -0.2288308
0001e0 74 3d 8c be 92 73 81 3d cc a8 e0 3d 48 9b 1f be
       -0.27390635 0.063208714 0.109696954 -0.15586579
0001f0 c9 29 95 3d cb ee 03 be ca 6c 0b 3d 10 88 a7 3e
       0.072833605 -0.12884061 0.034039296 0.32720995
000200 28 ae 40 3d cf eb eb bd 90 42 16 3e 8d bd 3a be
       0.04704109 -0.11519586 0.14673829 -0.1823637
000210 6c 46 11 3e 18 4f c6 3e 3f b8 87 be d8 e2 57 be
       0.1418702 0.3873222 -0.26507756 -0.21082628
000220 48 b7 d5 bd de f0 4c 3b 4e f7 2f be 8e 6f 94 bd
       -0.10435349 0.0031271498 -0.17184183 -0.0724784
000230 cf e7 55 3e 10 1d 17 be cd 1d 0e be 82 cd 03 3e
       0.20889209 -0.1475718 -0.13878556 0.12871364
000240 55 f3 6b 3e 54 64 a1 be ca de e9 3d 92 4a 32 be
       0.23042043 -0.31521857 0.11419447 -0.17411259
000250 8b 92 92 3e 9c e9 44 be 3f ff c1 3e 35 db 03 3f
       0.28627428 -0.1922974 0.3789005 0.5150636
000260 16 64 32 3d eb dc 87 3d c1 c6 33 3c 84 c6 53 3e
       0.04355248 0.06633934 0.01097268 0.20681196
000270 26 be 8e 3e 71 12 c1 bd c4 cb a9 bc f3 8a d5 bd
       0.27879447 -0.094273455 -0.020727046 -0.10426893
000280 eb 0d da be c0 05 72 3d 03 0d 14 3d fd 1b 89 3e
       -0.42588744 0.059087515 0.03614522 0.26779166
000290 2f 47 83 3e 9f 86 87 bd 53 d6 1e be d3 cc 2b bd
       0.25640246 -0.06617474 -0.15511446 -0.041943382
0002a0 be a5 3b bd 81 83 3b 3e 87 2d be 3e c8 39 49 be
       -0.04581236 0.18311884 0.3714411 -0.19650948
0002b0 f9 b6 75 bd 7a a9 77 3e 3c e2 0f 3e 64 29 92 3e
       -0.05998895 0.24185744 0.14051145 0.28547204
0002c0 9c 55 63 bd c2 74 4f be 0a 35 41 bd 50 0d ff bc
       -0.055501565 -0.20259383 -0.047169723 -0.031134278
0002d0 43 5b c4 3d ab 4d 4c bc ab 64 28 3e 22 9a 70 bb
       0.09587719 -0.012469689 0.16444652 -0.0036712964
0002e0 ad 9f 22 3e 15 ff 64 3f 5a b6 11 3e 2f b0 81 3e
       0.15881224 0.89451724 0.14229718 0.2532973
0002f0 8f b4 0e 3e f2 65 1c 3e 6b 14 3a 3e 6e 51 cf 3d
       0.13936065 0.15273264 0.18171851 0.10122953
000300 7c 46 03 3d cd e7 06 3c d1 46 39 3e d8 46 a0 3e
       0.03204964 0.008233977 0.1809342 0.3130405
000310 22 c2 69 be 4c 4b 7e be 9f 22 86 bd 4d 02 2a bd
       -0.22827962 -0.24833411 -0.06549572 -0.0415061
000320 ac 6f d2 bd 70 e1 b8 be a3 80 40 be e6 73 a2 3d
       -0.10275206 -0.36109495 -0.18799071 0.07932262
000330 45 f3 a5 3c 7c 5a c0 bc b2 96 58 be 05 0c 31 be
       0.020257602 -0.023480646 -0.21151236 -0.17289741
000340 fb 94 98 3e 9a 57 a3 be 69 6d 0a 3f 8d f6 87 be
       0.29801163 -0.31902772 0.54073197 -0.2655529
000350 c3 f4 88 3e bd bd 86 3d eb 03 45 3b f1 48 09 3e
       0.26749238 0.065791585 0.003006215 0.13406731
000360 33 4c fe bd 1c 31 85 be 1b c9 02 3d 94 d1 46 3e
       -0.124168776 -0.2601403 0.03193007 0.19415885
000370 98 1a c0 bd 28 e8 1b 3f f9 04 7c be bb 19 fb 3d
       -0.09380072 0.6090112 -0.24611272 0.12260767
000380 68 80 72 3e 4c 16 ae bd 64 09 85 be 17 6f fb 3d
       0.23681796 -0.085003465 -0.25983727 0.12277048
000390 3c a2 4b 3d 5c 57 5a be da 6a 06 be 44 03 f3 bd
       0.049715266 -0.21322387 -0.13126698 -0.11865857
0003a0 0f e6 bd 3e 97 d9 a0 3d 77 05 01 3d 4f a6 c1 bd
       0.37089583 0.07854002 0.031499352 -0.09455549
0003b0 fe b6 8b bc 3d 22 fe 3d 13 aa 2a 3e 9b 73 a7 bb
       -0.01705503 0.12408874 0.1666644 -0.005110217
0003c0 be b1 ae 3e c5 25 b4 bb 94 50 28 bc 51 45 3b be
       0.34119982 -0.0054976665 -0.010273118 -0.18288161
0003d0 f5 23 93 be 2b 05 cb 3d 0b c2 d0 be 13 6a ff be
       -0.2873837 0.09913095 -0.40773043 -0.49885616
0003e0 fd 71 8b b9 93 a5 12 3e 11 3a aa 3d 1e 17 49 3e
       -0.00026597074 0.14320974 0.083118565 0.19637725
0003f0 48 ec 5c 3e 31 c4 3e 3e 0c b1 cb 3e 23 ff bb 3d
       0.21574509 0.18629529 0.39783514 0.09179523

base.mlp.fc1.0.bias f4 [64]
000000 8d 87 a3 bd 37 a4 33 3c e5 49 4f bc d0 1f ef 3c
       -0.07984839 0.010964445 -0.012651895 0.029189974
000010 2f 9e 57 3d b7 73 18 3d 3c e7 0c bc 7f 7d dd 3d
       0.05264109 0.03721973 -0.008600052 0.10814952
000020 e7 46 d3 3c 46 31 91 bc 92 53 0d 3d a0 ce f7 39
       0.025790645 -0.01772369 0.034503527 0.0004726546
000030 17 e7 a7 3c 1d 94 d0 bd 5d 38 2c 3d 8c 7e a2 bc
       0.020495934 -0.101845 0.04204594 -0.019835733
000040 c1 4c 2e bc 35 13 b5 3c 68 1f 8c bd 94 0c 1d 3c
       -0.010638417 0.022103885 -0.06841928 0.009585518
000050 b4 54 9a 3d 57 f4 5f bc cf 9e 2e bc 6c 29 6d bd
       0.07535687 -0.013669095 -0.01065798 -0.05790083
000060 66 07 0a 3d d3 ce 62 3c 08 77 3c 3c d4 f3 6e 3d
       0.033698462 0.013843256 0.011502989 0.058338
000070 a1 40 7d 3b d5 fd c6 3c 6c 40 d0 3c 5e 09 74 3d
       0.0038643258 0.024290958 0.025421344 0.059579246
000080 2c ba f0 bc 1c c6 ca 3c ec 09 3f 3d c7 23 76 3b
       -0.029385649 0.024752669 0.04664032 0.0037557946
000090 66 4d 2c 3d e2 d9 48 bd a4 85 33 3c b8 7a 81 bc
       0.042066 -0.049035914 0.010957155 -0.015805587
0000a0 cf ba 24 bc 2d 17 0a bd 09 90 a2 bd ce 39 4e 3c
       -0.010054304 -0.03371351 -0.07937629 0.012587024
0000b0 37 33 21 bd 7a 4b 84 bc d6 b7 3e 3c 8d 6e c1 bc
       -0.039355483 -0.016149271 0.01164051 -0.023612285
0000c0 70 29 57 bd 47 b7 e0 bd 96 5e 7d 3c 72 f4 40 3d
       -0.052529752 -0.109724574 0.015464446 0.04710812
0000d0 7f e9 19 3c 39 54 56 bc 16 3b 87 bb 12 c2 b3 bc
       0.009394049 -0.013081604 -0.0041269166 -0.021943126
0000e0 e3 66 34 3d c7 14 87 bc ca ff 81 3d 3d 2f 1d 3d
       0.044043433 -0.0164894 0.06347616 0.038375128
0000f0 3f 60 44 bd 44 0b 1f bc 31 9b 99 3c db 5d 02 bd
       -0.04794335 -0.009707276 0.018750759 -0.03182779

base.mlp.fc1.2.weight f4 [64]
000000 03 8d 81 3f 43 de 5c 3f d5 ba 78 3f 71 4b 87 3f
       1.0121158 0.86276644 0.97160083 1.0569898
000010 a8 fc 86 3f 98 ea 87 3f 71 0d 85 3f 1b 2f 8f 3f
       1.0545855 1.0618467 1.0394727 1.118625
000020 7d dd 86 3f 7c 57 83 3f 3e ef 8c 3f a5 d5 85 3f
       1.0536343 1.0261073 1.1010511 1.0455824
000030 6d 5f 87 3f 65 82 85 3f 0b 23 84 3f fe 3e 82 3f
       1.0575997 1.0430418 1.0323194 1.0175474
000040 28 30 81 3f d1 11 8e 3f 1a fb 89 3f 70 ce 8b 3f
       1.0092821 1.1099187 1.0779755 1.0922375
000050 0e 22 89 3f ba 9f 80 3f 95 34 82 3f 1a 8a 84 3f
       1.0713518 1.0048745 1.0172297 1.0354645
000060 49 57 88 3f 4c a1 6f 3f f0 ca 89 3f 1d 8d 7d 3f
       1.0651637 0.93605494 1.0765057 0.99043447
000070 13 13 7a 3f d9 73 5a 3f 0c 19 8d 3f db cc 6b 3f
       0.97685355 0.8533302 1.1023269 0.9210946
000080 fb 5d 7f 3f 08 9d 6e 3f ff 07 88 3f 14 16 8c 3f
       0.9975278 0.9320836 1.062744 1.0944238
000090 11 db 86 3f 24 b2 83 3f 64 a4 76 3f 2d 6d 86 3f
       1.0535604 1.0288739 0.9634459 1.0502068
0000a0 bb e2 7b 3f 13 b4 8b 3f cc 39 51 3f ef 5f 82 3f
       0.9839284 1.0914329 0.81728816 1.0185527
0000b0 38 49 94 3f c4 a6 83 3f 04 20 8a 3f 7e 7f 83 3f
       1.1584845 1.0285268 1.079102 1.0273283
0000c0 3e 06 96 3f 99 1e 86 3f 4f eb 72 3f bd 1c 88 3f
       1.1720655 1.0478088 0.948903 1.063377
0000d0 be ae 80 3f 9a 3b 84 3f 67 20 7e 3f bd 27 78 3f
       1.0053327 1.0330689 0.9926819 0.96935636
0000e0 2b 5c 86 3f 44 de 8a 3f 5c 82 80 3f 28 f7 83 3f
       1.0496877 1.084908 1.0039783 1.0309801
0000f0 f7 71 6e 3f 99 ec 86 3f bb 59 7f 3f 12 5b 81 3f
       0.93142647 1.0540954 0.9974629 1.0105917

base.mlp.fc1.2.bias f4 [64]
000000 b7 e3 65 bd 6a 30 fc 3b 75 9c 90 3c f7 16 dd bb
       -0.05612537 0.007696201 0.01765273 -0.0067471224
000010 1f 35 51 3d 28 37 64 bd 79 0e 91 bb 9b 41 92 3d
       0.05107605 -0.055716664 -0.004426774 0.071414195
000020 09 94 98 bc b5 f5 bf bc 0f 15 9b ba 6d b0 8b bc
       -0.018625276 -0.023432592 -0.0011831837 -0.0170519
000030 c7 09 2a 3c 0a 40 47 bd b5 10 ec bb cb 1f c4 3c
       0.010378308 -0.048645057 -0.00720414 0.023940941
000040 8d fc 4d 3b f7 12 2f bd 59 10 93 bd 35 b4 40 bc
       0.003143105 -0.042742696 -0.071808524 -0.011761715
000050 46 76 e7 3d 8f e0 91 bd 47 67 e2 bc e4 86 dc bc
       0.11301856 -0.07122909 -0.027637137 -0.02691979
000060 64 60 af 3c 9d a9 4c 3c c1 16 8a bd 15 e8 8e 3d
       0.021408267 0.012491611 -0.06742621 0.0697786
000070 c8 e9 4f 3c d2 3f f3 3c 90 65 74 3d f8 30 ad 3d
       0.012690015 0.029693518 0.05966717 0.08456606
000080 54 9d d1 bc 57 68 88 3d d1 9d b7 3c 2d c9 f3 3b
       -0.025587715 0.06660526 0.02241412 0.0074397535
000090 63 4d c1 3c c5 f9 00 bc 10 81 1e 3a 03 d9 3a bb
       0.023596471 -0.00787205 0.00060464535 -0.0028510697
0000a0 b7 26 b4 bc 5e fd 0d bd 30 cb ad bb 22 7f c9 bc
       -0.021991117 -0.034665458 -0.005303763 -0.024596754
0000b0 88 9a 58 bd 23 56 c6 3b ee 6c 30 bd f6 08 e8 bc
       -0.052881747 0.0060527488 -0.043072633 -0.028324585
0000c0 a1 5a b2 bb 2c 5a f6 bd 2e 41 95 3c f3 03 63 3d
       -0.0054429327 -0.12028918 0.018219557 0.05542369
0000d0 ca 94 03 3d 8e 47 8f bc 70 d9 15 3d ca c9 5f bb
       0.03212432 -0.017490175 0.036584318 -0.0034147375
0000e0 a5 a6 a6 3c e8 ee b3 bd f0 0e c7 3d 52 29 27 3c
       0.020343134 -0.08785802 0.09719646 0.010202723
0000f0 bf 6d 53 bd 65 21 32 3c 0d ff 28 3d f7 2e 31 bd
       -0.051618334 0.01087222 0.04125886 -0.04325768

base.mlp.fc_h.0.weight f4 [64, 64]
000000 20 24 09 3d 93 ad 17 be 0b 51 24 3d ba b4 21 3e
       0.033481717 -0.14812307 0.04011635 0.15791598
000010 5e e3 85 be be 42 3c 3e 8e 2c c9 bd b0 b6 36 be
       -0.2615003 0.18384835 -0.09822951 -0.17843127
000020 3a 72 7b be 83 e7 56 3e f7 fa 71 3d 5c c5 0c bf
       -0.24555293 0.20986752 0.05907723 -0.54988647
000030 b4 eb a9 be 71 c9 9e bd 09 6e 82 be b8 29 6e 3e
       -0.3318764 -0.07753266 -0.25474575 0.23258102
000040 f8 34 11 bd a4 54 94 3e 7b e2 2c 3e bd 64 bd bb
       -0.035450906 0.28970826 0.1688327 -0.005779831
000050 08 6f ab bd 17 ff 99 3c 5f f3 c1 3e 3c ed b9 be
       -0.08370787 0.018798394 0.3788099 -0.36313808
000060 53 e4 20 be bd c6 01 3e 22 b4 90 be 88 04 24 3e
       -0.15712099 0.12673469 -0.2826243 0.16017354
000070 b8 de 93 3e 80 56 30 bb 34 33 b6 bd c7 64 09 be
       0.28880858 -0.0026907027 -0.08896485 -0.1341735
000080 7f e6 d8 3e 1a 25 99 bb b8 f8 04 3c 73 d1 26 be
       0.42363355 -0.0046736123 0.00811594 -0.16290836
000090 20 b2 70 3c c2 25 e8 be cc 68 c3 be 22 f9 0c bd
       0.014690906 -0.45341307 -0.3816589 -0.03441728
0000a0 bf 71 29 bd 27 f3 83 3d 68 a3 19 bd 8d f3 4b be
       -0.041368242 0.06442862 -0.037509352 -0.19917126
0000b0 51 07 ad 3e f6 b5 1f 3b 74 e0 30 bd 9a 0a 58 3e
       0.33794644 0.0024369932 -0.043182805 0.21097794
0000c0 3c 43 bf bd 9b 34 3d 3d e1 5a a0 3e 8b 29 9c be
       -0.09338996 0.046192747 0.31319335 -0.30500445
0000d0 11 a8 76 3e 6a 95 b7 3d f3 a1 74 3e 36 89 2e be
       0.2408755 0.08964045 0.23889904 -0.1704453
0000e0 ae 6d 64 be 46 3b 09 3c 22 f1 23 3e 84 7b 9f 3d
       -0.22307464 0.008375948 0.16009954 0.077872306
0000f0 ca 2d 24 be 6b 29 d7 bd fd 68 2e be a7 8e 0e be
       -0.16033092 -0.10505947 -0.17032237 -0.13921605
000100 7f 1e bc 3e 90 75 2e bd 45 30 24 3d 88 5e 4f be
       0.36742017 -0.042592585 0.040085096 -0.20250905
000110 33 a0 eb 3d 76 12 1d 3f fb 3b 1e bf 34 34 e7 bd
       0.11505165 0.61356294 -0.6181027 -0.11289254
000120 e3 6b ae bd 7b 0d fe 3c 1e 66 97 be 0c b3 25 3d
       -0.085166715 0.031012287 -0.29570097 0.040453956
000130 28 6d 6a 3d 47 16 0f 3c 30 f0 64 be b4 42 22 3d
       0.057233006 0.008733339 -0.2235725 0.039614394
000140 6d 8d 09 3d 2f 71 48 be 5b 24 04 3e f6 78 11 3d
       0.03358214 -0.19574426 0.12904494 0.035515748
000150 03 80 01 3e 37 d9 a9 bc 95 65 9e 3d 53 4a 8b bd
       0.12646489 -0.020733459 0.07734219 -0.068012856
000160 d8 ff 47 bc 8a 10 db be 63 0c c8 3d 2a 09 9b 3e
       -0.012206994 -0.42786056 0.097679876 0.3028043
000170 99 cb 40 be 79 32 61 3e 26 80 87 3d 31 c0 b6 bb
       -0.18827666 0.2199191 0.06616239 -0.00557711
000180 79 fa 6d be a0 cf dd 3d 23 97 ae bd 7c fd fe 3d
       -0.23240079 0.10830617 -0.08524921 0.12450692
000190 8b ca 82 be 86 f5 bd 3d 18 98 61 3e 11 9e 1b 3e
       -0.25545153 0.092753455 0.22030675 0.15197016
0001a0 ba b2 a3 be f0 a5 12 3d 27 92 73 3e 25 af 58 be
       -0.31972295 0.03580278 0.23786221 -0.21160562
0001b0 87 b0 d1 3e 9e 1d 79 be 59 66 03 3e 32 69 d7 3d
       0.40954992 -0.24327704 0.12832011 0.10518111
0001c0 80 58 1b 3d 5b 4d 00 3e a7 f0 0f 3d 67 bc 98 3e
       0.037926197 0.12529509 0.035141613 0.2983124
0001d0 9f 3a 71 bd 5d c7 b3 be 1d fe 10 3e cb 3a 7c be
       -0.058893796 -0.3511304 0.14159437 -0.24631803
0001e0 00 f7 c9 bd c7 01 dc bd e9 39 df 3d 82 56 4f 3e
       -0.09861565 -0.107425265 0.10899717 0.20247844
0001f0 a5 f4 1d 3e 18 02 1c be b0 7c 8c 3e 49 64 96 3b
       0.15425356 -0.15235174 0.2743888 0.0045895916
000200 2e 70 94 be f4 70 7c 3e 87 6c 5a 3e a7 f7 9f bd
       -0.28991836 0.24652463 0.21330462 -0.07810908
000210 52 a9 86 3c 38 97 db bd 67 12 8f bc 59 07 22 3e
       0.01643816 -0.10722202 -0.01746483 0.15823115
000220 85 2f 8c be 06 b2 67 3e cb 50 3f be 44 20 25 be
       -0.27380005 0.22626504 -0.18683164 -0.1612559
000230 41 7a ee 3e fb 37 0b 3d 96 16 b4 bd aa 2a 0f 3c
       0.46577647 0.033988934 -0.087933704 0.008738199
000240 a5 8d dc bd b8 e4 d6 3e 4c e9 29 3e 30 d1 e5 3e
       -0.10769204 0.41971374 0.16592902 0.4488616
000250 72 37 39 3e d4 2d 69 be 16 b4 a3 3e 74 0f a9 3e
       0.18087557 -0.22771388 0.31973332 0.33019602
000260 96 07 58 3e aa db 7c 3e 2c 5f 76 3e 84 03 4c 3e
       0.21096644 0.2469317 0.24059743 0.19923216
000270 4c 29 e0 bd ce e1 1f bd f7 c6 1c be 9b 14 26 be
       -0.10945377 -0.039033704 -0.15310274 -0.16218798
000280 fd 2f d0 3c 23 6c 20 bb bb 59 98 be 08 ed 26 3e
       0.025413508 -0.0024478517 -0.2975596 0.16301358
000290 c0 70 ea bb 23 2d 2b be 72 5e 69 bd ed 51 f5 3d
       -0.007154554 -0.16716437 -0.056974836 0.11978517
0002a0 99 c6 f0 bb 8a 09 2c 3c de f5 a1 3e b2 c7 d5 3d
       -0.0073478934 0.010500321 0.31632894 0.104384795
0002b0 40 33 f3 bd 16 5b 46 3d 10 72 69 be 28 10 82 3d
       -0.118750095 0.04842671 -0.22797418 0.06350738
0002c0 a1 03 1b be dc f6 10 3e 17 fe 8a 3d aa dc 9a 3e
       -0.15138103 0.1415667 0.06786745 0.30246478
0002d0 02 eb 1b be 74 a2 64 3e a8 b6 bf 3e 93 e9 8d bc
       -0.15226367 0.22327596 0.37444043 -0.01732329
0002e0 2a 95 d2 3b c3 c7 ed bd 05 48 48 be f2 48 01 bf
       0.006426473 -0.11610367 -0.19558723 -0.5050193
0002f0 1e 05 c6 3d 9b 7b 8f be bc 67 fe 3d a4 7b 58 3e
       0.09668945 -0.2802399 0.124221295 0.21140915
000300 13 4e fb 3d a0 f4 a7 be 9e 2e 84 bd 73 47 a7 3b
       0.12270751 -0.32803822 -0.06454204 0.005104953
000310 00 ed c2 bd 44 eb 99 be cc a3 1a 3d 9a 31 f5 3d
       -0.095178604 -0.30062306 0.037753865 0.11972351
000320 e3 32 71 be 33 ac de 3e c0 87 45 be ed ba 17 be
       -0.23554568 0.43490753 -0.19290066 -0.148174
000330 5e 5c 11 bd f7 f0 8a bc 10 d0 83 3e 5f ea f4 be
       -0.03548848 -0.016960604 0.25744677 -0.4783506
000340 72 59 41 bd 0f 90 85 bd 70 81 1c be 24 8c 27 3e
       -0.047204442 -0.065216176 -0.15283751 0.16362053
000350 83 ee fc bd a6 86 83 bc bf 02 04 3e 26 86 a5 bd
       -0.1235018 -0.016055416 0.12891673 -0.080822274
000360 f3 08 ed 3e a9 f7 60 be bd 64 a2 be 92 74 1a bd
       0.4629589 -0.21969475 -0.31717482 -0.037708826
000370 2a 35 1f be 64 2a f1 3d 5d 45 e9 be 46 77 53 bd
       -0.15547624 0.117756635 -0.45560732 -0.05162742
000380 8f 02 df 3d 61 41 35 be c6 58 b7 3e 3f 17 40 3d
       0.1088916 -0.17700721 0.35809916 0.04689717
000390 32 14 8c 3c 13 10 9c 3e a3 31 58 be 44 8d 0b be
       0.017099474 0.30481014 -0.21112685 -0.13628107
0003a0 c8 4b 6b 3e 81 ec 33 be c0 b5 4b 3e ee 99 bd be
       0.22978127 -0.17570688 0.19893551 -0.37031502
0003b0 29 81 30 bd 67 88 49 3e 90 84 94 bd cd 90 2c be
       -0.043091927 0.1968094 -0.07251847 -0.16852112
0003c0 6a 9d ee 3d 3f b6 23 3c fd 47 0b be a8 7b fc 3e
       0.11651118 0.009992181 -0.1360168 0.49313092
0003d0 ea 52 7c 3d 95 3d c1 bd 71 55 d0 3d 6b 4c 48 3c
       0.06160251 -0.09435574 0.10172547 0.012225251
0003e0 94 b1 69 3c 8b 31 69 be 76 18 42 3e 00 4b 92 3e
       0.014263529 -0.22772805 0.18954644 0.28572845
0003f0 20 47 a2 3d 71 4d b3 bd 52 a7 48 be 82 d5 51 be
       0.07923722 -0.08755005 -0.19595078 -0.20491603

base.mlp.fc_h.0.bias f4 [64]
000000 00 00 00 00 00 00 00 00 00 00 00 00 00 00 00 00
       0.0 0.0 0.0 0.0
000010 00 00 00 00 00 00 00 00 00 00 00 00 00 00 00 00
       0.0 0.0 0.0 0.0
000020 00 00 00 00 00 00 00 00 00 00 00 00 00 00 00 00
       0.0 0.0 0.0 0.0
000030 00 00 00 00 00 00 00 00 00 00 00 00 00 00 00 00
       0.0 0.0 0.0 0.0
000040 00 00 00 00 00 00 00 00 00 00 00 00 00 00 00 00
       0.0 0.0 0.0 0.0
000050 00 00 00 00 00 00 00 00 00 00 00 00 00 00 00 00
       0.0 0.0 0.0 0.0
000060 00 00 00 00 00 00 00 00 00 00 00 00 00 00 00 00
       0.0 0.0 0.0 0.0
000070 00 00 00 00 00 00 00 00 00 00 00 00 00 00 00 00
       0.0 0.0 0.0 0.0
000080 00 00 00 00 00 00 00 00 00 00 00 00 00 00 00 00
       0.0 0.0 0.0 0.0
000090 00 00 00 00 00 00 00 00 00 00 00 00 00 00 00 00
       0.0 0.0 0.0 0.0
0000a0 00 00 00 00 00 00 00 00 00 00 00 00 00 00 00 00
       0.0 0.0 0.0 0.0
0000b0 00 00 00 00 00 00 00 00 00 00 00 00 00 00 00 00
       0.0 0.0 0.0 0.0
0000c0 00 00 00 00 00 00 00 00 00 00 00 00 00 00 00 00
       0.0 0.0 0.0 0.0
0000d0 00 00 00 00 00 00 00 00 00 00 00 00 00 00 00 00
       0.0 0.0 0.0 0.0
0000e0 00 00 00 00 00 00 00 00 00 00 00 00 00 00 00 00
       0.0 0.0 0.0 0.0
0000f0 00 00 00 00 00 00 00 00 00 00 00 00 00 00 00 00
       0.0 0.0 0.0 0.0

base.mlp.fc_h.2.weight f4 [64]
000000 00 00 80 3f 00 00 80 3f 00 00 80 3f 00 00 80 3f
       1.0 1.0 1.0 1.0
000010 00 00 80 3f 00 00 80 3f 00 00 80 3f 00 00 80 3f
       1.0 1.0 1.0 1.0
000020 00 00 80 3f 00 00 80 3f 00 00 80 3f 00 00 80 3f
       1.0 1.0 1.0 1.0
000030 00 00 80 3f 00 00 80 3f 00 00 80 3f 00 00 80 3f
       1.0 1.0 1.0 1.0
000040 00 00 80 3f 00 00 80 3f 00 00 80 3f 00 00 80 3f
       1.0 1.0 1.0 1.0
000050 00 00 80 3f 00 00 80 3f 00 00 80 3f 00 00 80 3f
       1.0 1.0 1.0 1.0
000060 00 00 80 3f 00 00 80 3f 00 00 80 3f 00 00 80 3f
       1.0 1.0 1.0 1.0
000070 00 00 80 3f 00 00 80 3f 00 00 80 3f 00 00 80 3f
       1.0 1.0 1.0 1.0
000080 00 00 80 3f 00 00 80 3f 00 00 80 3f 00 00 80 3f
       1.0 1.0 1.0 1.0
000090 00 00 80 3f 00 00 80 3f 00 00 80 3f 00 00 80 3f
       1.0 1.0 1.0 1.0
0000a0 00 00 80 3f 00 00 80 3f 00 00 80 3f 00 00 80 3f
       1.0 1.0 1.0 1.0
0000b0 00 00 80 3f 00 00 80 3f 00 00 80 3f 00 00 80 3f
       1.0 1.0 1.0 1.0
0000c0 00 00 80 3f 00 00 80 3f 00 00 80 3f 00 00 80 3f
       1.0 1.0 1.0 1.0
0000d0 00 00 80 3f 00 00 80 3f 00 00 80 3f 00 00 80 3f
       1.0 1.0 1.0 1.0
0000e0 00 00 80 3f 00 00 80 3f 00 00 80 3f 00 00 80 3f
       1.0 1.0 1.0 1.0
0000f0 00 00 80 3f 00 00 80 3f 00 00 80 3f 00 00 80 3f
       1.0 1.0 1.0 1.0

base.mlp.fc_h.2.bias f4 [64]
000000 00 00 00 00 00 00 00 00 00 00 00 00 00 00 00 00
       0.0 0.0 0.0 0.0
000010 00 00 00 00 00 00 00 00 00 00 00 00 00 00 00 00
       0.0 0.0 0.0 0.0
000020 00 00 00 00 00 00 00 00 00 00 00 00 00 00 00 00
       0.0 0.0 0.0 0.0
000030 00 00 00 00 00 00 00 00 00 00 00 00 00 00 00 00
       0.0 0.0 0.0 0.0
000040 00 00 00 00 00 00 00 00 00 00 00 00 00 00 00 00
       0.0 0.0 0.0 0.0
000050 00 00 00 00 00 00 00 00 00 00 00 00 00 00 00 00
       0.0 0.0 0.0 0.0
000060 00 00 00 00 00 00 00 00 00 00 00 00 00 00 00 00
       0.0 0.0 0.0 0.0
000070 00 00 00 00 00 00 00 00 00 00 00 00 00 00 00 00
       0.0 0.0 0.0 0.0
000080 00 00 00 00 00 00 00 00 00 00 00 00 00 00 00 00
       0.0 0.0 0.0 0.0
000090 00 00 00 00 00 00 00 00 00 00 00 00 00 00 00 00
       0.0 0.0 0.0 0.0
0000a0 00 00 00 00 00 00 00 00 00 00 00 00 00 00 00 00
       0.0 0.0 0.0 0.0
0000b0 00 00 00 00 00 00 00 00 00 00 00 00 00 00 00 00
       0.0 0.0 0.0 0.0
0000c0 00 00 00 00 00 00 00 00 00 00 00 00 00 00 00 00
       0.0 0.0 0.0 0.0
0000d0 00 00 00 00 00 00 00 00 00 00 00 00 00 00 00 00
       0.0 0.0 0.0 0.0
0000e0 00 00 00 00 00 00 00 00 00 00 00 00 00 00 00 00
       0.0 0.0 0.0 0.0
0000f0 00 00 00 00 00 00 00 00 00 00 00 00 00 00 00 00
       0.0 0.0 0.0 0.0

base.mlp.fc2.0.0.weight f4 [64, 64]
000000 82 7a 1c 3d d8 70 73 be 39 54 c6 3d 86 66 34 3e
       0.03820277 -0.23773515 0.09684033 0.17617235
000010 f9 c1 62 be 5b 61 57 3e 0f f0 34 be 2a fd 5a be
       -0.22144307 0.21033232 -0.176697 -0.21385637
000020 83 31 81 be 22 7f 84 3e b4 4f a6 3d c1 41 03 bf
       -0.25233087 0.25878245 0.08120671 -0.5127221
000030 07 bb 8d be 99 0d bc bd 7a 15 66 be a2 7b 0e 3e
       -0.27681753 -0.09182281 -0.2246913 0.1391435
000040 4b 4c 69 bb 38 f4 89 3e 2b c0 fa 3d 73 64 c0 bd
       -0.0035598453 0.26944137 0.122436844 -0.09394159
000050 85 f1 1e bd 19 a0 c0 3d 4b c0 d4 3e ca ae a5 be
       -0.03880455 0.09405536 0.41552958 -0.32359916
000060 61 92 37 be 58 67 2c 3b 58 05 46 be 34 fa 44 3e
       -0.17926933 0.0026306715 -0.19337976 0.1923607
000070 6d 37 71 3e 09 c4 df bd 27 a6 de bd b1 58 14 be
       0.235563 -0.109260626 -0.10871535 -0.14486958
000080 4f 73 de 3e 94 60 51 3b c3 7e 6e bd 0f 3c 29 be
       0.43447348 0.0031948434 -0.05822636 -0.16526817
000090 5a c8 f5 3c d3 44 e0 be d9 10 e4 be 9b 1c 58 bd
       0.030002762 -0.4380251 -0.44544104 -0.052761655
0000a0 25 4e 92 3c fb 10 88 3d c5 7f 01 bc 26 11 52 be
       0.017859528 0.06643864 -0.007903998 -0.20514354
0000b0 68 18 95 3e 64 10 31 3d 37 ef 44 3d 88 48 6d 3e
       0.29120183 0.043228522 0.048079696 0.231722
0000c0 0b 41 cd bd fd 5d e6 3d 47 8e b1 3e f8 19 e0 be
       -0.100221716 0.112483956 0.34678861 -0.43769813
0000d0 fd 86 33 3e e7 8c b8 3c 5e f1 97 3e 96 93 30 be
       0.17531963 0.022528125 0.29676336 -0.172438
0000e0 90 85 87 be f7 24 a7 3d 0c 78 61 3e 53 ff 1f 3e
       -0.26469088 0.08161347 0.2201845 0.15624742
0000f0 de 5c fb bd a2 15 4b be f4 57 38 be 7f 52 78 be
       -0.122735724 -0.19832471 -0.18002301 -0.2425022
000100 42 e4 80 3e 98 8a d1 bd 2f ec b1 bd 9f db 85 be
       0.25174147 -0.10231513 -0.086876266 -0.2614412
000110 3f ef 4e 3e da 98 11 3f 36 c7 10 bf ed 44 ee bd
       0.20208453 0.5687386 -0.5655397 -0.1163424
000120 8e 0e 08 be 07 e5 14 3d fa cb d3 be e2 0b 38 39
       -0.13286802 0.03635123 -0.4136656 0.00017552034
000130 0f 29 05 bb eb 62 8f 3d c8 14 92 be 8f 9c 0b 3e
       -0.0020318662 0.07001289 -0.2853148 0.13633941
000140 df 49 bd bb b1 b1 61 bd 2b cc 67 3e b0 c1 b3 bd
       -0.0057766284 -0.0551011 0.22636478 -0.08777177
000150 4a fa 32 3e 54 a4 1b 3d e7 fb 56 3d 3b c8 49 3d
       0.1747829 0.037998512 0.052486327 0.04926322
000160 30 e6 c9 bd c7 d7 d0 be 60 83 97 3d 14 4d b0 3d
       -0.09858358 -0.40789625 0.07398105 0.086084515
000170 d8 cb 73 be f9 f0 1e 3e 1c 9b 91 3d c2 13 76 3c
       -0.23808229 0.15521611 0.07109663 0.015019359
000180 33 4f 4d be b0 dd 16 3e b9 09 5b be 5e 73 9f 3d
       -0.20049743 0.14733005 -0.21390428 0.077856764
000190 a3 dd b2 be f1 d7 eb 3c 2d 9b 60 3e af c1 b3 3d
       -0.3493472 0.028789492 0.21934195 0.087771766
0001a0 33 9a 81 be 00 0b 85 3d 16 42 d2 3e 20 4a 2f be
       -0.25312957 0.06496239 0.41066045 -0.1711812
0001b0 32 65 fd 3e b2 16 c1 bd 53 95 6f 3e b0 01 e4 3d
       0.49491268 -0.09428157 0.23396806 0.11133134
0001c0 b6 61 07 3e de b3 13 bb b2 f8 25 3d f5 7a 44 3e
       0.13220868 -0.002253763 0.040520377 0.1918753
0001d0 55 fb 14 be 15 ed 8a be 5b 25 93 3e 2f 71 67 be
       -0.14549 -0.27134004 0.28739437 -0.2260177
0001e0 62 63 0b 3d a3 92 dc bd 7d 32 8f 3e 6f df 21 3e
       0.034030326 -0.10770156 0.27968207 0.1580789
0001f0 5f ae 6d 3e 15 e4 5e be 62 45 63 3e e8 84 b4 3c
       0.23211049 -0.21766694 0.22194436 0.02203603
000200 df 03 a0 be 79 b1 76 3e ea 24 5b 3e e5 64 05 be
       -0.31252953 0.24091138 0.214008 -0.1302677
000210 6f 7e 43 bc c1 42 40 be ff 57 6e 3c 84 69 66 3e
       -0.011932 -0.18775465 0.014547347 0.22501189
000220 ce 95 45 be 5b 6b 6d 3e 91 33 70 be 12 9e 0b be
       -0.19295427 0.23185484 -0.23457171 -0.13634518
000230 47 07 cf 3e d4 0a 73 3d 07 0b c9 bd e1 69 be bc
       0.4043524 0.0593365 -0.098165564 -0.023243846
000240 da 15 bf bd 74 ce 08 3f da 33 7a 3e 69 ab bd 3e
       -0.0933034 0.5344002 0.24433842 0.37044838
000250 09 1e 9b 3e cc 7e 9a be 03 b6 b0 3e 6e f8 cd 3e
       0.30296353 -0.30174863 0.34513864 0.402286
000260 c4 fa 3e 3e f1 2d 47 3e e4 63 76 3e 4d 70 c5 3d
       0.18650347 0.19451119 0.24061543 0.0964056
000270 31 52 4a bd e6 c6 b3 bd 96 d4 2e be 48 e5 6a be
       -0.04939479 -0.08778171 -0.17073283 -0.22939026
000280 19 d1 a0 3d 38 67 a7 3d 90 10 4f be 60 a4 c9 3d
       0.07852382 0.08173984 -0.20221162 0.09845805
000290 c3 cd cc bd 92 62 89 be b9 b7 83 bd 11 ab 20 3e
       -0.100001834 -0.26833016 -0.06431527 0.15690257
0002a0 be f8 f9 3c 9d 06 11 bd 43 66 d7 3e 08 64 9a 3d
       0.030514117 -0.035406698 0.42070207 0.07538611
0002b0 5a 61 9b bd cd dd 1c 3e 4c d7 70 be ea f3 df 3d
       -0.07586928 0.15318985 -0.23519629 0.10935195
0002c0 dd db 9d bd b8 67 c2 3d 83 3e 51 3d 13 77 37 3e
       -0.07707951 0.09492439 0.051085006 0.17916517
0002d0 29 54 52 be c6 b3 57 3e ce 99 d2 3e a4 85 bb bd
       -0.20539917 0.21064672 0.4113297 -0.09156349
0002e0 0d 26 a3 3d b7 49 9e bc 63 af 4d be 48 7a 1e bf
       0.07966242 -0.01932226 -0.20086436 -0.61905336
0002f0 76 42 be 3d e3 4e 8e be e3 8f d3 3d 5a 35 6e 3e
       0.0929002 -0.2779456 0.103301786 0.2326254
000300 ad 65 f3 3d 9f 50 9e be 5e e8 98 bc dd 35 88 bc
       0.118846275 -0.30920884 -0.018665489 -0.016627247
000310 69 f1 92 bd 55 f1 93 be 43 1f 33 bc ea a7 b6 3d
       -0.071749516 -0.2889506 -0.010932746 0.08918746
000320 16 38 8e be 54 65 d0 3e 11 f3 52 be 8a 4d 80 be
       -0.27777165 0.40702307 -0.20600535 -0.25059158
000330 41 11 17 3d 6f ab ba 3d 34 6d 9b 3e a0 4b ce be
       0.03688169 0.091147296 0.30356753 -0.40292072
000340 ad ae 8f 3b ee a0 98 bd 2e cf 2a be dd 59 44 3e
       0.0043848366 -0.0745257 -0.16680595 0.19174905
000350 70 86 cb bd 30 02 81 3d 7d fc 15 3e 2a 92 f7 bd
       -0.09937751 0.06299245 0.14647098 -0.120884255
000360 1f 92 e5 3e e7 42 92 be 0e 57 7f be b3 df e3 bc
       0.44838044 -0.28566667 -0.24935552 -0.027816629
000370 e9 8e a9 bd 70 b1 d7 3c 30 af f9 be 4e cf a2 3c
       -0.08279211 0.026329726 -0.4876647 0.019874241
000380 68 de a2 3d f9 8f 4b be c5 90 c3 3e 6b 86 e6 3d
       0.07952577 -0.1987914 0.38196388 0.11256107
000390 f8 f9 7e bb f6 8c 95 3e 83 88 95 be af a1 1e be
       -0.0038906317 0.29209107 -0.29205713 -0.15491365
0003a0 f1 e9 8e 3e e1 d0 0c be 41 59 91 3e 5f 1e c9 be
       0.27912858 -0.13751556 0.28388408 -0.39280984
0003b0 1e c7 94 bd e8 26 5b 3e 9f c4 e3 bd 37 39 39 be
       -0.07264541 0.2140156 -0.11121487 -0.18088232
0003c0 96 fd 27 3e 2b bc 0c bd d5 36 91 bd b8 d9 df 3e
       0.16405329 -0.03435914 -0.070905365 0.43720794
0003d0 0a 4c 11 3b c2 cd 0c be cd 24 03 3d a4 4e a9 3d
       0.0022170567 -0.13750365 0.032017518 0.08266953
0003e0 15 c6 8a bc f1 b4 3a be 21 75 4a 3e 7c df d0 3e
       -0.016940156 -0.18233086 0.19771244 0.40795505
0003f0 3d 4c fd 3c 9d 3a 21 be 12 cb 30 be e0 b9 a0 be
       0.030920142 -0.15745015 -0.17264965 -0.3139181

base.mlp.fc2.0.0.bias f4 [64]
000000 cd d0 0e bd 4b 80 ed 3a ae 69 73 bd ae 6c 6f 3c
       -0.034867097 0.0018119899 -0.059426956 0.014613314
000010 b8 2f b2 bc 4e b8 7a bc ec e6 42 3d 34 44 6e bc
       -0.02175127 -0.015302731 0.047583506 -0.014542628
000020 15 0f 1d bb ae 99 83 bd 4b 28 85 3c 0b df c8 bd
       -0.0023965288 -0.064257964 0.016254565 -0.09808167
000030 ec ca 05 bd bf aa eb 3c b3 4f 40 bc 33 46 7f bc
       -0.032664225 0.028767942 -0.011737752 -0.015580702
000040 22 72 3c bd c0 e5 04 3e ce 94 20 3d 96 14 3d bb
       -0.046007283 0.12978268 0.03920441 -0.0028851382
000050 31 ca 15 3d ae 16 4c 3d b1 ac 4c bd fc aa 5d bc
       0.036569778 0.049826317 -0.04996938 -0.013529535
000060 28 a1 ee 3d 6f 16 01 3a 28 8b ca bd 59 7e 05 bd
       0.11651832 0.00049243023 -0.09889823 -0.032591198
000070 a0 54 2c bd 54 20 31 bd 36 5c be 3c ba 65 88 3d
       -0.042072892 -0.04324372 0.023237329 0.06660028
000080 e9 94 a1 bc e7 b5 cb bb a3 6c f4 3c 13 ed 40 be
       -0.019724326 -0.006216753 0.029836958 -0.18840437
000090 09 0c 15 3d 1c 95 f2 bd a1 a3 70 bd 2a b7 85 3c
       0.03638843 -0.118448466 -0.0587498 0.016322691
0000a0 f3 c5 f5 3d dd 73 69 bc 57 97 20 3c d4 01 43 bd
       0.120006464 -0.014248815 0.009801707 -0.047609165
0000b0 ef b2 1d bd c0 f0 14 3e 71 2f de bc 1d 43 a5 bc
       -0.038500722 0.14544964 -0.027122231 -0.020173604
0000c0 84 99 37 3d 84 f9 a2 3b 6b ab 91 bc ec 8f 8b bd
       0.04482414 0.0049735922 -0.017781934 -0.0681456
0000d0 f2 e8 95 3c d5 da d8 3a 6d 4a b4 bc 19 b4 38 bb
       0.018299554 0.0016544709 -0.022008145 -0.0028183518
0000e0 60 f7 c7 bc 7c 05 52 3d a7 75 7b 3b 5b 16 31 3b
       -0.02440995 0.05127476 0.0038369687 0.0027021382
0000f0 76 c0 38 bc db 98 45 3d c7 a1 23 3d 2a 4b b0 bd
       -0.011276355 0.048241477 0.039949205 -0.086080864

base.mlp.fc2.0.2.weight f4 [64]
000000 24 05 79 3f 9a 76 67 3f 07 e5 7e 3f 2b 68 81 3f
       0.9727347 0.90415347 0.9956822 1.0109915
000010 2e f1 85 3f 31 ab 83 3f df f1 83 3f 5b 45 74 3f
       1.0464227 1.0286618 1.0308188 0.9541833
000020 86 4f 7d 3f 9b 64 7b 3f 84 0a 8a 3f f0 e2 82 3f
       0.9894947 0.98200387 1.0784459 1.0225506
000030 f6 c5 77 3f 1c 37 7c 3f 17 fd 7d 3f 6a a6 78 3f
       0.9678644 0.9852159 0.9921431 0.9712893
000040 15 00 77 3f c3 8e 71 3f b2 24 85 3f c8 e2 82 3f
       0.964845 0.9435846 1.0401824 1.0225458
000050 a7 e5 74 3f 0b 54 79 3f 33 37 86 3f 97 c6 8a 3f
       0.9566292 0.97393864 1.0485595 1.0841855
000060 dd 5d 7d 3f f4 15 8a 3f f2 3e 83 3f 4b 67 92 3f
       0.9897135 1.078795 1.0253584 1.1437773
000070 4e e4 84 3f 2e 1c 65 3f e7 93 82 3f e8 e7 72 3f
       1.0382173 0.89496124 1.0201386 0.9488511
000080 4c 00 83 3f 2e a1 82 3f 1a 19 83 3f f2 4e 81 3f
       1.0234466 1.0205438 1.0242035 1.0102217
000090 7b 2a 88 3f 3a c3 6e 3f 16 e0 85 3f c2 4f 89 3f
       1.0637964 0.9326664 1.0459011 1.0727465
0000a0 dc b7 72 3f 11 60 82 3f 7b 97 75 3f e3 9e 86 3f
       0.948118 1.0185567 0.95934266 1.0517238
0000b0 5d 51 77 3f f9 a7 6e 3f e9 34 88 3f 2d 26 80 3f
       0.96608526 0.93225056 1.0641147 1.001165
0000c0 ee f5 76 3f 67 7b 87 3f d0 5b 7c 3f 92 5f 83 3f
       0.9646901 1.0584534 0.98577595 1.0263541
0000d0 59 b8 7a 3f 82 22 83 3f 87 fc 6c 3f c6 1a 8a 3f
       0.9793754 1.0244906 0.92572826 1.0789421
0000e0 21 b5 82 3f f6 46 82 3f ac c5 82 3f f8 c0 86 3f
       1.0211526 1.0177906 1.0216575 1.0527639
0000f0 2e 48 8c 3f 96 35 8a 3f ab 37 73 3f 25 5e 7f 3f
       1.0959527 1.0797603 0.9500682 0.9975303

base.mlp.fc2.0.2.bias f4 [64]
000000 51 20 09 3c be cf e5 3c 4e 79 97 3b b9 a2 07 bd
       0.008369521 0.02805316 0.004622615 -0.03311417
000010 7b e2 b5 bb 45 49 b4 3c c9 b4 87 bb 9a 49 15 3b
       -0.00555068 0.022007594 -0.0041414243 0.0022779466
000020 9a 40 6a bc 5d 92 87 bd 1c 1d 89 ba 26 53 d4 bb
       -0.014297629 -0.066197135 -0.0010460946 -0.0064796386
000030 7c 50 8c 3d d7 5d ac 3d 59 b6 10 3d f8 15 18 bc
       0.06851289 0.08416336 0.03533015 -0.0092825815
000040 d7 88 c4 bc 81 4e 8b 3d 93 83 89 3d 1b 5c 8a 3b
       -0.023991032 0.06802083 0.06714549 0.0042224056
000050 95 bf d3 3c 3d 22 93 3b 62 56 27 3c b2 15 8f bc
       0.02584819 0.0044901655 0.010213466 -0.0174664
000060 e5 64 ae 3c 60 5e 21 bc 74 12 a6 bd 74 eb 8b bd
       0.021288345 -0.009849161 -0.081089884 -0.068320185
000070 c6 78 8b bc 01 7c 6c bd 5a 88 07 bd 84 6f 9a bc
       -0.017025363 -0.057735447 -0.03308902 -0.018852003
000080 74 9d d8 3b 7a 1b 0b 3d 29 00 69 3c 38 67 5a 3b
       0.0066105668 0.03396175 0.01422123 0.0033325683
000090 60 fe c1 3c 91 aa bb bc b8 53 57 bd 65 36 a8 bb
       0.023680866 -0.02290848 -0.052570075 -0.0051334375
0000a0 48 37 ea 3d 0a 4f 85 3c 94 24 7b 3c 51 50 66 bc
       0.11436325 0.01627304 0.015328545 -0.014057235
0000b0 93 9b f3 bc 73 db 7f 3d 22 27 a9 39 2e c1 8f bc
       -0.02973727 0.062465142 0.00032263348 -0.01754817
0000c0 d1 d9 da 3b 01 db 4e 3d 76 8f 14 bd df fe 50 3c
       0.006678798 0.050501827 -0.036269628 0.0127560785
0000d0 3a 12 80 3b 27 3c 3d 3c df c0 b6 bc a4 c1 83 3b
       0.003908423 0.011549986 -0.022308765 0.0040208865
0000e0 ac eb a6 3c 2b 2f 83 3b 9e 31 b6 bc 1d f8 25 3d
       0.020376049 0.0040034256 -0.022240456 0.040519822
0000f0 49 bc a1 bc 28 91 86 3c 8e 80 93 3d 95 a0 4a bd
       -0.019743102 0.016426638 0.07202254 -0.04946955

rnn.rnn.weight_ih_l0 f4 [192, 64]
000000 10 af 58 bc 36 39 01 be fb 0c 9e 3d 6d 0f 82 3d
       -0.013225332 -0.1261948 0.077173196 0.063505985
000010 2f 3c 19 3d da f0 7c 3d e0 27 ee 3d 0b 64 24 be
       0.03741091 0.06175313 0.11628699 -0.16053788
000020 62 38 8e 3c 5b 39 1f bd 09 18 50 3e 81 e3 90 bd
       0.01736087 -0.038873058 0.20321669 -0.07074643
000030 e1 a4 6a bd bd 9c bd 3c 74 ba 07 bd 75 00 c8 3d
       -0.057286147 0.023146028 -0.0331368 0.09765712
000040 cf 52 98 bd a3 f6 d3 bd a1 de 48 bc 88 33 5b 3d
       -0.074376695 -0.103497766 -0.01226011 0.05351594
000050 58 b1 c1 3d b1 3e 15 3d 52 fc 40 be 59 43 0b be
       0.09457654 0.03643674 -0.18846253 -0.1359991
000060 7b c0 b1 bc 13 c9 c1 3c dc ba cf 3d 8e e6 f4 3d
       -0.021698227 0.02365545 0.101430625 0.11958037
000070 74 48 14 3d 8e 1c db bd 6a 13 6b bd 3e c6 17 3d
       0.03620191 -0.10698806 -0.05739156 0.037054293
000080 2b f7 37 bd 38 6e 25 3e 99 b5 a7 3d 2c f8 a0 bd
       -0.044913452 0.16155326 0.08188934 -0.07859835
000090 a2 f4 0f bd 03 53 03 3e 16 08 fb 3d b4 b8 b1 3c
       -0.03514541 0.12824635 0.12257402 0.021694519
0000a0 02 f2 a9 bd f8 64 08 3e 1c dc 11 be 33 bb 96 bd
       -0.082981125 0.13319767 -0.14244121 -0.07359924
0000b0 65 93 09 3e 24 f3 20 bd d2 89 42 be 10 01 06 bc
       0.13435133 -0.039294377 -0.18997887 -0.008178964
0000c0 f2 3b 19 3e 07 dd a0 3d 2a 5f e4 bc 8c 44 ee bc
       0.14964274 0.078546576 -0.027877409 -0.02908542
0000d0 7f f8 e3 bd 16 68 af bc dd e5 84 bd 17 29 aa bd
       -0.11131381 -0.021411937 -0.064891554 -0.083086185
0000e0 23 a6 5a bd d9 b1 71 3d 65 79 19 bd 9f b0 47 3d
       -0.053381097 0.0590075 -0.037469286 0.048752423
0000f0 87 76 d3 3d 95 f0 27 be f6 8f ed bd f4 f5 85 bd
       0.10325342 -0.16400369 -0.11599724 -0.065410525
000100 cb b1 71 3d 01 6d ed bd c4 6b 2f bc 88 b6 53 3e
       0.059007447 -0.115930565 -0.010706846 0.20675099
000110 77 7c 45 3e d0 f4 26 3e 5d 92 0e 3e a5 2d 1a 3d
       0.19285761 0.16304326 0.1392302 0.037641186
000120 d1 c9 69 3c 3f 8b 30 3e 36 f8 27 be 76 ee c7 bd
       0.014269308 0.17240618 -0.16403279 -0.0976228
000130 df d8 86 bc 02 5f 85 bd d6 05 04 3e dd 1c 36 be
       -0.016460834 -0.06512262 0.12892851 -0.17784448
000140 cf 2b 6e bd c6 e3 ff bd bc 3c 92 be 40 8d b1 3c
       -0.058147248 -0.12494616 -0.28561962 0.021673799
000150 50 27 db 3d 6c 32 09 bd 02 03 38 3c ae fa dd bd
       0.10700858 -0.03349535 0.011231186 -0.10838829
000160 0f f7 25 3b 9a ad 3f 3d 11 41 67 3c c6 6f 8d 3e
       0.002532426 0.04679642 0.014114634 0.2762434
000170 69 a3 04 be 8f 74 a9 3d cb 9b 09 3c a8 59 b1 bd
       -0.12952961 0.08274185 0.00839896 -0.08659679
000180 8e dc 4e bd 4d 0f fc 3c e1 5c 06 3d 5e 61 e2 3c
       -0.050503306 0.030769015 0.03280342 0.027634319
000190 b0 9a 17 bd af 55 3c 3b 5c 2b a2 3d dd 61 5f be
       -0.037012756 0.0028737595 0.079184264 -0.21814676
0001a0 a5 c7 5b bc 0b f6 0c be eb f4 13 be bc 72 0b bd
       -0.013414298 -0.13765733 -0.14448898 -0.034044966
0001b0 29 38 5e 3e 92 9f 77 3e 10 de 7a 3d 6e ea 9f bd
       0.21701111 0.24181965 0.06124693 -0.07808386
0001c0 c6 61 58 bc 7a a6 18 be 2d 87 d8 bc d1 be 7b bd
       -0.013206905 -0.14907256 -0.026431644 -0.061461274
0001d0 f6 d3 6b 3d c5 33 83 3d f7 57 b1 3d 2c b5 30 bd
       0.05757519 0.06406359 0.08659356 -0.04314153
0001e0 8a e1 d5 bd 7d 9c df 3d 8a 75 df 3d 8b ca 77 3d
       -0.10443409 0.1091852 0.10911091 0.060495894
0001f0 bb 53 f3 bd 22 ba fb 3d 8e be dd 3d 8f e6 f7 3d
       -0.11881205 0.122913614 0.10827361 0.121045224
000200 f6 bd 95 3d 29 32 a0 3d cc af 4d bd 89 c3 96 3e
       0.07311623 0.07822067 -0.05021648 0.29446056
000210 7e 47 24 3d 0a 87 05 3e 8a 75 3a 3d 00 cd a6 bb
       0.040107243 0.13039795 0.04552225 -0.005090356
000220 79 b7 cf 3c c0 5e 56 3d e0 eb 03 bd f0 6d 05 bd
       0.025356041 0.052336454 -0.03220737 -0.032575548
000230 97 fe 36 3e 4f dd af bd 06 18 f1 bd 7b 00 4a bd
       0.17870556 -0.08587133 -0.1177216 -0.049316864
000240 97 ef 05 3c d5 14 32 3d d8 7d 02 bc bd 0c b0 bd
       0.008174798 0.0434769 -0.007964574 -0.0859618
000250 5e f1 c8 3d 53 b7 b8 3d 7d 81 6d 3e 7e c9 1b 3e
       0.09811662 0.09019341 0.23193927 0.15213582
000260 d1 c2 37 3e 11 25 89 bb d5 fc c7 bd 46 c3 63 bd
       0.1794541 -0.004185327 -0.09765021 -0.05560615
000270 d5 08 32 bd d5 0c fe bd a5 9b f8 3c d0 ae 02 be
       -0.043465454 -0.12404791 0.030347655 -0.12761998
000280 6a 29 b5 3d ff 63 1c be 39 2c 74 bd 16 e7 b8 bd
       0.0884579 -0.1527252 -0.059612487 -0.09028451
000290 14 91 43 3d 55 3f 83 bd ad 3a a5 bc 25 c7 19 be
       0.04774578 -0.06408564 -0.02016958 -0.15017374
0002a0 51 36 84 be 05 da 2d be bb 11 69 be 8b 64 14 bd
       -0.2582269 -0.16977699 -0.2276067 -0.036228698
0002b0 70 2b 62 3d d1 39 12 3d 86 b1 32 3e f4 49 e3 bd
       0.055217206 0.03569967 0.17450532 -0.1109809
0002c0 06 c4 36 bd 58 88 56 bd 7e f2 b7 bb 3d 7a 0e 3c
       -0.044620536 -0.05237612 -0.005613624 0.008696136
0002d0 51 09 e3 bd f2 dc 55 3d 9c dd 2b 3e 86 32 ac 3a
       -0.11085761 0.052212663 0.16783756 0.0013137616
0002e0 46 1e 16 be 85 3a b7 3e 7c 8b 11 3e 0b 7f c6 bd
       -0.14659986 0.35786834 0.14213365 -0.096922
0002f0 ce 38 a6 bd b8 57 41 be 16 8f 1c 3e 13 bc a8 3d
       -0.081163034 -0.18881118 0.15288958 0.08238997
000300 6a 02 6d 3c a4 6a 0d 3e ee 16 d5 bd db 8d 8a bd
       0.014465908 0.13810211 -0.10404764 -0.06765338
000310 2c f3 79 bc fb 8d cb 3b a2 b4 9e be 03 5a 23 3e
       -0.015255731 0.0062119938 -0.30997187 0.15952305
000320 fd 5f 23 be e2 83 40 bd c5 dc 42 bd 39 5c 20 bd
       -0.15954585 -0.047000773 -0.047573823 -0.03915045
000330 7c a3 d7 3d 3c 8e 1d bd 4f 24 29 3c a6 d4 8f 3d
       0.10529229 -0.038465723 0.010323598 0.07022981
000340 e1 f0 ff 3d 86 60 e1 3d 66 56 46 bc 3d 31 8b bc
       0.12497116 0.110047385 -0.01210556 -0.016991252
000350 7c fb 65 bd 3b 5f 43 3c bc ee 1d 3e 81 6d 91 bd
       -0.056148037 0.01192456 0.15423101 -0.07100964
000360 77 06 96 be 27 82 50 bd 1d b5 07 be 1a ba 28 bd
       -0.29301807 -0.050905373 -0.13252683 -0.041193105
000370 13 c9 0b 3d 11 3b f8 bb 85 0c 94 3d 33 49 a7 bd
       0.034127306 -0.0075754006 0.072289504 -0.081682585
000380 78 1c e7 bc 56 7c 90 bd e2 71 b8 bc 06 4f dd bc
       -0.028211817 -0.07054965 -0.022515241 -0.02701522
000390 0a 53 d6 3c 96 9d 00 be 4b 36 3e 3d b3 ef 49 bc
       0.026162643 -0.12560114 0.046438497 -0.012325215
0003a0 a7 3c 77 3c c4 f7 f8 bd 9a c4 76 3d a9 96 87 bd
       0.015090144 -0.121566325 0.060246088 -0.06620533
0003b0 af 94 18 3d 33 07 64 bd 06 f4 b5 3d c2 a4 7e 3c
       0.03725117 -0.05567093 0.088844344 0.015542211
0003c0 09 f2 7c bd 6d 0e 07 be 87 69 18 3d c8 58 99 bd
       -0.06175426 -0.13189097 0.037210014 -0.07487637
0003d0 17 d9 55 3d 60 ec d6 bd ab 83 b9 bc 08 9e fe bc
       0.052208986 -0.10494304 -0.022645792 -0.031081215
0003e0 77 48 2d 3e 3d b2 26 be 10 13 a0 bc 15 04 19 bd
       0.16922174 -0.1627893 -0.01954034 -0.03735741
0003f0 6d ca 7b 3e 8e 3e 1c bd 30 8a 85 3c 57 8c 6c 3d
       0.24588938 -0.038145594 0.016301244 0.057751026

rnn.rnn.weight_hh_l0 f4 [192, 64]
000000 04 c4 a2 bc b3 f9 09 bc 19 32 a1 3d 0e 99 6a be
       -0.019868858 -0.008421349 0.078708835 -0.22909948
000010 79 b8 ca bd 60 54 f5 3d f5 be 87 3c 58 89 e8 3d
       -0.098984666 0.11978984 0.016570548 0.11354321
000020 24 4c 9c bd bf 97 a7 bc ce 9d ee 3c e0 77 a6 bc
       -0.0763171 -0.0204581 0.029127982 -0.020320833
000030 3d e4 8d 3d 44 28 9d 3c ba 06 e4 bd ab cd 8f bd
       0.069282986 0.01918424 -0.111340955 -0.0702165
000040 be 20 58 3c 58 b6 a0 bd fa 5e 0c bd 19 49 d0 3d
       0.0131914 -0.07847279 -0.034270264 0.10170192
000050 43 81 8f 3c 66 0d 85 3d 5d 71 e6 3a b5 24 92 3d
       0.017517691 0.06496696 0.0017581392 0.071359076
000060 22 ac 09 3d 20 e5 da bc 60 4a b6 bc 3b 3e a1 3c
       0.033611424 -0.026720583 -0.022252262 0.019682994
000070 1c 06 c8 bd 09 13 4c 3e 18 a8 29 3d 1f 60 ae bd
       -0.0976679 0.19929136 0.041420072 -0.085144274
000080 d2 0a 46 3e d1 68 18 3c ed cc 1d 3b e0 35 cf 3c
       0.19340065 0.009302334 0.0024078444 0.025294244
000090 64 ef 46 3a 58 24 ca 3d 99 33 ca 3d 69 fb 2f 3d
       0.00075887726 0.09870213 0.09873123 0.042964373
0000a0 c4 b2 e5 bc 1a d8 a8 bd df 30 f4 bd cb 6e c7 bc
       -0.028039344 -0.08244343 -0.11923384 -0.024344822
0000b0 17 bd 05 3d 8f 36 af ba d0 c4 ef 3d fc 91 b8 3c
       0.032651033 -0.00133677 0.11707461 0.022530548
0000c0 e3 66 b6 3c 4b 3d 96 3c 2b 7c 16 3e b5 d0 9d 3d
       0.022265857 0.018339774 0.14695804 0.07705823
0000d0 51 f8 25 3e 58 51 29 be 5f 02 d1 bd 41 af 8d 3c
       0.16208006 -0.16534936 -0.102055304 0.017295482
0000e0 ef 3e 96 bd f1 3e 09 3d e8 41 a0 bd 95 7b c6 bd
       -0.073362224 0.03350729 -0.078250706 -0.0969154
0000f0 ce f7 bc bd a2 8d 7a bd 18 b7 fa bc 41 62 61 bd
       -0.092269525 -0.061170228 -0.030604884 -0.055025343
000100 54 ba d5 3d d2 aa cc bc 24 30 91 bd 62 c8 22 be
       0.1043593 -0.024983797 -0.0708926 -0.15896752
000110 4a 6f 7e bd eb 55 17 bc 62 2e 83 b9 e3 d7 e7 3c
       -0.062117852 -0.009236793 -0.00025020825 0.028301185
000120 ec f9 4d bd 86 ce 2b bd 18 97 25 be 64 f0 e0 bd
       -0.050287172 -0.041945003 -0.16170919 -0.10983351
000130 e2 4b 6d 3e 2a 9a f0 3d 91 61 a3 bd 6e 76 17 bd
       0.23173478 0.117481545 -0.07977594 -0.036978178
000140 8c 48 a1 3d 9e d5 e6 bc ba 59 a4 3d a6 7b 23 3e
       0.07875165 -0.028178032 0.080249265 0.15965137
000150 f3 9d a0 3d e4 a0 3c bd c8 28 11 3e bf 30 23 bd
       0.078426264 -0.046051875 0.14175713 -0.03984141
000160 b8 d3 d8 3d 4a 9e 19 be ac 26 8d 3d ed eb b6 3d
       0.10587257 -0.15001789 0.06892142 0.08931718
000170 4b dd f0 bd 46 a8 47 3e dc b3 e1 3c c7 c8 ae bc
       -0.11760958 0.19497785 0.027551584 -0.021335972
000180 30 0f 0a 3d f1 1c ff 3b 31 4d 01 bd a1 b1 85 3c
       0.03370589 0.0077854325 -0.031567756 0.016320052
000190 6f 4c cd bd a5 32 82 bd a9 c6 ac 3d 07 63 e0 3c
       -0.10024344 -0.06357316 0.08436329 0.02739097
0001a0 9d 12 68 be 29 d3 d2 bd df 65 bf bd e0 e1 9e 3b
       -0.2266335 -0.10294182 -0.09345602 0.0048487037
0001b0 aa 92 46 bd 0b 00 00 bd 05 a7 9b 3d b0 30 20 3e
       -0.048479713 -0.03125004 0.07600216 0.15643573
0001c0 24 bd fe bd 49 32 40 3e 7e 4e a6 bc 03 8f 5d 3d
       -0.124384195 0.18769182 -0.0203011 0.054091465
0001d0 38 0f d3 3d 35 cf e0 3d 6e 69 cf bc f2 43 3a bd
       0.10305637 0.109770216 -0.025318827 -0.045474954
0001e0 54 d1 80 3c cc d2 3b 3d c1 26 89 bd 58 95 c3 bd
       0.015724815 0.04585533 -0.06696845 -0.095499694
0001f0 9f 34 0e 3e df bd ee bc 84 fc 39 3b 16 b3 b5 3d
       0.13887261 -0.029143272 0.002837927 0.088720486
000200 91 ac 28 3d a6 04 8b 3c b5 da b6 3d 3e f1 19 be
       0.041180197 0.01696999 0.08928434 -0.15033433
000210 49 ff 38 be 40 34 8a 3d c0 f7 06 be 5d 28 2b bd
       -0.18066134 0.06748247 -0.13180447 -0.04178654
000220 ad 73 21 3e d4 eb 80 be 3b e1 24 be 28 be 90 3c
       0.15766783 -0.25179923 -0.16101544 0.017668799
000230 e3 ed 02 3e 3a ac 00 3c d4 bc cc ba 05 ea 12 be
       0.12786059 0.007853562 -0.001562024 -0.14347084
000240 2f 2b de 3d c5 5c 5c bc 2f 38 64 bc 61 a5 07 3e
       0.1084808 -0.013449852 -0.013929411 0.13246681
000250 3a bf af bc 0a 8f 13 be 67 d6 b2 3d 11 64 4d 3e
       -0.021453489 -0.14410034 0.087323 0.20057704
000260 45 bc 84 3c b8 d1 53 bd df ed 44 3d 84 93 ab bb
       0.016203055 -0.051713675 0.048078414 -0.005236091
000270 e1 a7 7a be 2a 56 6f 3e 73 ae 83 3c 5a cf 34 be
       -0.24478103 0.23372713 0.016074395 -0.17657223
000280 58 63 08 3e 10 f9 dc bc b2 98 0b 3e 34 1d 5b be
       0.13319147 -0.026974231 0.13632467 -0.21397859
000290 f5 4c c9 3d 1a 58 5a 3e af 1d 52 be 52 79 8b 3d
       0.098291315 0.2132267 -0.20519136 0.068102494
0002a0 5d 53 f0 bd cc 2b aa 3d b1 3d 39 be 31 18 3a 3e
       -0.1173465 0.08309135 -0.1808994 0.18173291
0002b0 bc 88 81 be 5b fe dc bb dc bf 1d be 2d 5d a6 3c
       -0.25299633 -0.0067441887 -0.1540522 0.020308102
0002c0 f9 e1 45 bd 9e 2d 6d 3d 66 46 d8 bd 96 17 97 3d
       -0.048311207 0.057904832 -0.105603024 0.073775455
0002d0 81 16 2f be 87 a6 eb 3c d5 0c 7a bd bc 16 f1 bb
       -0.17098428 0.02876593 -0.061047394 -0.0073574465
0002e0 06 bb 3a be 3a 24 1a be aa 63 0b 3d b8 e6 21 3e
       -0.18235406 -0.15052882 0.034030594 0.15810668
0002f0 d1 be b6 3d 67 4f 46 be a7 6f 05 bd 18 4c 1a 3e
       0.08923114 -0.19366227 -0.032577183 0.1506809
000300 2a 40 03 be bd a5 e2 3c 21 2e 01 bd 0e f3 da 3d
       -0.12817445 0.02766692 -0.031538133 0.1069089
000310 cd 4a 2f 3e b5 8e 2c bd c9 07 8d 3d e2 52 c9 3d
       0.17118378 -0.042128284 0.068862505 0.09830262
000320 09 c9 a8 bd c3 0c 75 3d 5e 95 82 bd fb df 66 3d
       -0.082414694 0.059826624 -0.06376146 0.05636595
000330 e7 f6 a5 bc b6 4a ab bb 29 d7 b2 3d 9c dd 0d be
       -0.020259334 -0.005227412 0.08732445 -0.13854069
000340 62 4b ac bb 6a 0b b0 bd 78 f6 c2 3c ef 61 90 bd
       -0.00525801 -0.08595927 0.023799166 -0.07049929
000350 23 19 92 3c 85 50 c8 bd 74 77 f1 bc 1b 83 7d 3d
       0.017834252 -0.09780983 -0.029475905 0.06189261
000360 40 3d 52 bd 03 6d d3 3d 10 48 51 3d 1c ca 1d bd
       -0.051327944 0.10323527 0.051094115 -0.038522825
000370 a2 89 ba 3d f8 fa aa bc cb cd c9 bd e2 4f 44 3e
       0.091082826 -0.020871624 -0.09853705 0.19171098
000380 92 26 0c 3d fb fe 1b 3e 0a 28 fa bd 56 6b 9b 3c
       0.03421647 0.15233986 -0.12214668 0.01897208
000390 13 da 85 bd 5d 74 47 3d d8 bd d3 3c ae fd e4 3c
       -0.06535735 0.048694957 0.02584736 0.027952995
0003a0 80 65 8c 3c d8 3b 8a bd 83 df 69 bc 40 9d 9d 3d
       0.017138243 -0.067496955 -0.014274481 0.07696009
0003b0 be 7a f6 3c e5 4e d9 bd a2 e7 17 3e 28 d7 96 3c
       0.030087825 -0.10610751 0.14834455 0.018413141
0003c0 5f b5 25 bd 26 68 77 3d 48 29 bb 3d 64 f8 94 bd
       -0.040456172 0.060402058 0.09138733 -0.07273939
0003d0 be e6 d0 3d c9 5e e7 3b c6 d1 67 3c c3 e6 fe bd
       0.102002606 0.00706086 0.014149135 -0.12446358
0003e0 ae a1 6d 39 fe 02 f1 bc da dd 6f 3c 1c e9 30 bd
       0.00022662312 -0.029420372 0.014640296 -0.04319106
0003f0 e2 10 ad ba ac 6b 2f 3e 71 79 9a bd 8b 6c 6f 3d
       -0.0013203884 0.17130917 -0.07542694 0.058453124
