results/MPE/simple_spread/rmappo/check/wandb/run-20230405_234758-osarhpa0/files/critic.pt (torch, 155415 bytes, 21 tensors)

base.feature_norm.weight f4 [54]
00000000: 8aed 5e3f a8f2 633f 21da 803f f377 873f
00000010: eea8 753f fe4f 793f 8945 7a3f 220b 7e3f
00000020: 870c 793f 7ba9 6f3f 1bae 7c3f f2cd 803f
00000030: de86 7f3f c4e0 873f 242f 833f f9eb 893f
00000040: d868 823f 6acf 743f 852a 5a3f 476e 5c3f
00000050: c749 6d3f 205a 7c3f 8aec 7f3f 9748 7e3f
00000060: 0555 753f 7416 7b3f 9c1d 773f 68cf 753f
00000070: 4f65 7d3f c00d 803f b31e 6d3f 55fe 7e3f
00000080: 97b1 873f 2f5b 813f cc6e 7d3f 98a1 813f
00000090: 6a30 4f3f 2d4c 643f e470 7b3f 3af5 7c3f
000000a0: 98bc 7c3f bb26 723f 50db 703f be04 7c3f
000000b0: c263 803f 26ad 813f c969 803f 4585 8d3f
000000c0: 2079 7e3f 5804 853f 5fe0 7e3f 1d4e 813f
000000d0: 31be 783f 225c 873f
0.87081206 0.8904214 1.0066568 1.0583481 0.9596089 0.97387683 0.9776235 0.9923574
0.9728474 0.9361798 0.98703164 1.006285 0.99815166 1.0615468 1.0248761 1.0775138
1.0188246 0.9562899 0.8522113 0.8610577 0.926907 0.9857502 0.99970305 0.99329513
0.95832855 0.98081136 0.96529555 0.960196 0.9898271 1.0004196 0.9262497 0.9960683
1.0601071 1.0105952 0.9899719 1.012744 0.8093325 0.89178735 0.9821913 0.98811686
0.9872527 0.9459035 0.94084644 0.98444736 1.0030444 1.0130966 1.0032283 1.1056296
0.9940357 1.0391951 0.99561113 1.0101963 0.9716521 1.0574992

base.feature_norm.bias f4 [54]
00000000: dd96 77bc f016 06bd e01a d43c 74b3 113c
00000010: ecd3 123d 2e45 56bc 45ec b7bc 243d 02bd
00000020: 3858 2dbd 4da9 0a3d 7b27 a43b 994f 0f3d
00000030: 7141 9e3d a37c 533d 7b5a b83b 28ec bebc
00000040: 65e4 a6bd a6c2 c23c 7866 883d fae6 9e39
00000050: a514 cbbc 1bb9 d23c 58d6 c5bd 399c 8838
00000060: fb6d fabb e218 8dbb 3770 4a39 f9af 44bc
00000070: 30ab 9f39 1aa8 8e3c 7c1b 85bd 5e49 bcbc
00000080: 8ac2 e73d 730c 3a3e 905a c43b cf8e 6a3c
00000090: efd9 2d3c 3965 19bd 0f2d e73c d860 2dbd
000000a0: c871 8bbb 0d78 1ebd ad16 02b9 9a04 87ba
000000b0: 8f5d 383d fde3 e9bd 1680 a73c 2bd3 33bc
000000c0: aebb dbbd 98dc 25bc 277c 4d3b 6a34 713d
000000d0: a3a6 4d3d ed5b 943d
-0.015111652 -0.03273672 0.025891721 0.008892883 0.035846636 -0.013078017 -0.02245153 -0.03179659
-0.04232046 0.033852864 0.0050095893 0.03498802 0.07727326 0.051632535 0.0056260205 -0.023305967
-0.081490315 0.023774456 0.06660169 0.000303082 -0.024790118 0.02572303 -0.096600235 6.514084e-05
-0.007642505 -0.004305945 0.00019306024 -0.012004846 0.00030454388 0.017414141 -0.06499383 -0.022984203
0.11316402 0.18168812 0.005992241 0.014316275 0.010611041 -0.03745005 0.028219728 -0.042328686
-0.004255507 -0.038688708 -0.00012406214 -0.0010301054 0.0450111 -0.114204384 0.020446818 -0.010975639
-0.107291564 -0.010123394 0.0031354518 0.058887877 0.050207745 0.07244096

base.mlp.fc1.0.weight f4 [64, 54]
00000000: acc8 bfbd 6854 c13e 7772 de3d 6b9f 9b3e
00000010: ef7c a1bd 2e12 49bd 146f ebbc 113e 45bd
00000020: c7fd ec3d 3c43 693d a235 4e3e b32a 46be
00000030: d79d 46be d7cc 243c 68fb 9abe 3900 ac3e
00000040: f5ef 203e c94c 073f aece 9fbd 401e a5be
00000050: fb57 3cbe ec7b d3bd 0b65 adbd af6a 233e
00000060: a008 973e cb43 973d da1b c03d 42bb 153e
00000070: 4076 ffbb df23 2a3e 6e02 923e c5d3 473e
00000080: 2040 b13e 098d cebe c1ae d0bd e763 99be
00000090: a451 9e3d 62a2 5739 aebf c2bd 7ada 07bd
000000a0: 960a 68be d440 fbbd a69c fd3d f2dd 9b3d
000000b0: 2124 98be ae13 183e 7c51 a33e d604 8c3e
000000c0: 2727 9a3e 2a9d c3bd 9955 36be 1067 4fbd
000000d0: e4e8 46bd d16f 8ebd 0ae4 583e c978 dd3d
000000e0: 3c86 8e3e 9394 54bd ee92 28bd 1e12 1d3e
000000f0: eb90 d63e 7e4d 17be 6a7c 1f3f 9792 5c3e
00000100: e6c3 683d ea30 36be 6a76 ddbd ceee bb3d
00000110: 7ca8 5f3e 0fe8 203d c57f 33bd 81d5 adbe
00000120: 77dc c13e 4ecd 17bd 633f 123e 8df5 683e
00000130: 8553 9ebc 80b1 a93d 0dc4 8c3d 85ac 9abe
00000140: 0a20 4ebe b4d5 aa3b 69b7 8cbe 9ff2 673e
00000150: fdb2 4d3e 56a6 fbbd 4d7c 3dbc 68e4 41bd
00000160: 9eec 1bbe c855 b3bd 0099 623e 14d5 623e
00000170: 514b 243e 5c98 293e 59dc 463d 4d69 063e
00000180: a91f c1be 6c80 bfbd 3982 b7bd 7ffb 98be
00000190: b63e 233d ff89 b8bd 9df5 8a3c 0a36 afbe
000001a0: 1790 7ebe 43c1 61bd 40a8 d33e e5d6 9c3d
000001b0: 32c6 953e ab4e 353e d0d9 51bd b217 1fbf
000001c0: 0edd 153e 0208 3b3e 73a7 1d3d 2c93 d73c
000001d0: 0c9a c6bd 712a 1d3e e25c 1c3e f70d 983d
000001e0: c631 423d d49b ec3d 5d62 2ebd 98ee e0bd
000001f0: 397e 503e 2d17 653e e5e0 473e 3b9d 5fbe
00000200: 8381 ebbd 6874 e13d 0671 b03e 08e6 0fbe
00000210: e91e abbb 9e95 bc3e 55b5 973e 6ec3 83bc
00000220: a248 5ebd 79d9 873e 9403 82bd 08b5 e03e
00000230: e24d 94be 019a 843c 7ec5 5ebe 8f3c 8e3e
00000240: e900 91bd 368e d4bd dc18 313e 06f7 e9bc
00000250: 18d8 023f f719 2dbe ea18 80be fd99 463e
00000260: d109 25be 1aec 3ebc ba2c b53d e1a5 4b3d
00000270: 3f97 a93e 0f03 21be b4fc d9bd b5f6 d3bd
00000280: cff0 153e ee53 9ebe 07e6 fe3d 9ef3 bebc
00000290: adb8 a0be 7e37 99be 8591 e63c 0af2 02be
000002a0: 54a8 7abc 07a5 a13e bec6 b8be 76f6 91bc
000002b0: 78d1 763e 8e8a 0a3e 0bf5 60be e0a6 923e
000002c0: b2a2 9ebc 96e2 813e 0916 573e 4513 b3bd
000002d0: 949d ca3e 0265 ae3c 3f3e bcbe a132 083e
000002e0: 8d3a 6abc 1b61 613e 9450 c9bd 9811 933e
000002f0: d13a 673e 925b 06be 73b0 983d ad4b 28be
00000300: a601 febd 3b8e 1fbe 65eb 9d3e 3d48 a23e
00000310: b076 9b3e 8bb4 72bd c748 eabc e6f9 d23e
00000320: fb3e 31be ee8a 27be b37c 9ebb ff2b 903d
00000330: 1159 43be 91cb ebbe 3457 e43d 20b8 37be
00000340: 588c a63e 0c67 033d e016 f2bc 91b1 c1bd
00000350: 002f 80bb b553 993e f2c1 6bbd 82a1 8a3e
00000360: fc0b 113e cfb0 783e 1c1c 443e 0819 eabd
00000370: 8e41 e8bc ab84 3dbe cab7 763e 2ff9 b3be
00000380: 6b53 993d a070 26be cffb ebbd c431 593e
00000390: dbe6 6ebe 1a5a a63c 3012 7c3e a99f f53d
000003a0: 5985 f73e ad72 6b3e 0a09 5cbe 75d3 54bd
000003b0: 6e92 43bd 226e 92be 56e6 08bd 2599 183e
000003c0: 6be2 59be 36ae 6ebd 6775 d2bd 547b 103d
000003d0: b452 36be 9080 453c 433e 2e3d f11a 84bd
000003e0: 01e7 5dbd a53b 9c3e 0038 8abe dc01 ad3e
000003f0: 4fcd 49be 8389 60be 200a a8be 9a8d 67be
-0.09364447 0.3775971 0.10861676 0.30395064 -0.07885157 -0.049089603 -0.02873949 -0.048154894
0.11571842 0.056948885 0.20137647 -0.19352226 -0.19396149 0.010058603 -0.30269933 0.3359392
0.15716536 0.5285154 -0.07803093 -0.3224964 -0.18392937 -0.103263706 -0.08466538 0.15958665
0.29498768 0.07385977 0.09380312 0.14622214 -0.007796079 0.16615246 0.2851748 0.19514377
0.34619236 -0.40341976 -0.10189582 -0.29959032 0.077304155 0.0002056449 -0.09509216 -0.03316734
-0.22660288 -0.12268224 0.12383394 0.07610692 -0.29715064 0.14851257 0.31898105 0.2734744
0.30107996 -0.09551461 -0.1780609 -0.050635397 -0.048561946 -0.06954921 0.2118074 0.108140536
0.27836788 -0.051899504 -0.041155748 0.15338942 0.4190744 -0.14775655 0.62299216 0.21540295
0.05682745 -0.17792097 -0.10813601 0.09176408 0.21841615 0.03928381 -0.043823022 -0.33951953
0.37863514 -0.03706103 0.14281993 0.2274992 -0.019326935 0.082858086 0.06873331 -0.30209747
-0.2012941 0.0052134637 -0.2748368 0.22651146 0.2008781 -0.122875854 -0.01156528 -0.047336966
-0.15226981 -0.08756596 0.22128677 0.22151595 0.16044356 0.16562027 0.048549984 0.13126107
-0.37719467 -0.093506664 -0.08960385 -0.29879376 0.039854728 -0.09010696 0.01696282 -0.34220916
-0.24859653 -0.05511595 0.41339302 0.076581754 0.29252774 0.1770579 -0.051233113 -0.6214553
0.14635107 0.18264773 0.03848977 0.026315294 -0.09697351 0.15348221 0.15269807 0.074245386
0.04741075 0.11553159 -0.042574275 -0.10983008 0.2036065 0.22372122 0.19519384 -0.21837322
-0.11499312 0.11008531 0.3446123 -0.14052594 -0.0052221906 0.368329 0.29630533 -0.0160844
-0.054268487 0.26533106 -0.06348339 0.43888116 -0.2896567 0.016186716 -0.21755025 0.27780578
-0.07080252 -0.10378687 0.1729464 -0.028560173 0.5111098 -0.16904436 -0.25019008 0.1939468
-0.16117026 -0.011652971 0.088464215 0.04971874 0.33123204 -0.15723823 -0.106439024 -0.1034979
0.14642642 -0.30923408 0.12446218 -0.023309525 -0.31390896 -0.2992515 0.028145561 -0.12787643
-0.015298922 0.31571218 -0.36089128 -0.017817717 0.24103343 0.13529417 -0.21968476 0.2864294
-0.019364689 0.25368184 0.210045 -0.0874391 0.39573348 0.021288399 -0.3676624 0.13300563
-0.014296186 0.22009699 -0.09829822 0.2872436 0.2258103 -0.13120869 0.0745553 -0.16435118
-0.12402658 -0.155816 0.30843654 0.31695738 0.3036399 -0.05925421 -0.028599156 0.41206282
-0.17309181 -0.16361591 -0.0048366426 0.070396416 -0.19076945 -0.46053746 0.11149445 -0.17941332
0.3252895 0.032080695 -0.029551923 -0.09457696 -0.003911853 0.29946676 -0.057558008 0.27076346
0.14164728 0.24286197 0.19151348 -0.114305556 -0.028351571 -0.1850764 0.24093547 -0.3515105
0.07486614 -0.162539 -0.11522638 0.2121039 -0.23330252 0.020306636 0.24616313 0.119933434
0.48343924 0.22992964 -0.21487823 -0.051959474 -0.047747068 -0.2859965 -0.03342279 0.1490217
-0.21277778 -0.05827161 -0.10276299 0.035273865 -0.17804986 0.0120545775 0.042539846 -0.06450451
-0.05417538 0.30514255 -0.2699585 0.3379048 -0.19707225 -0.21927457 -0.32820225 -0.2261261

base.mlp.fc1.0.bias f4 [64]
00000000: e647 85bd 9f32 afba bc6f 5dbd 0e62 ab3d
00000010: 36b4 913c 9ee1 75bd 6998 9c3b 7435 5a3e
00000020: a8ab 86bd ac66 23bd 7072 39bd cee6 c83c
00000030: 3d0e 5e3d 7df6 80bc a2ed dd39 ba1a cb3d
00000040: 1b2d 973c 6899 4e3c fd6a 903c 4700 3cbc
00000050: 005e 323b 7283 bebd 73be a93d 95e4 cfba
00000060: 1d57 4abc 4b8c 3bbc e1b7 483d 845a 3c3c
00000070: 0e9e ef3c 1dfe 5ebd d989 e73c bfad 803d
00000080: 3926 babc a2b7 84bb 04fd 8d3d fb0d 55bd
00000090: f9eb 733d 380d 983c 48ae 14bd 3b25 71bc
000000a0: 442e 083d f3b5 53bd f0cf 853b b474 afbd
000000b0: 4903 333d 2570 8cbc 1661 f93b 52dc 46bd
000000c0: bc1e 603d 23ee 0a3c 5a36 a4bc 60a0 fc3c
000000d0: 57d6 dabc 47ae 653d f118 4f3b 76b8 18bd
000000e0: e5cd 113d 5589 043d 697b c6bc 8ee3 0cbd
000000f0: aac4 843d bb16 7f3b e1d2 7dbc 8eff 80bd
-0.06507854 -0.0013366527 -0.054061636 0.08368312 0.017786127 -0.06002962 0.004778911 0.21309453
-0.065757096 -0.039892837 -0.04527515 0.024524119 0.054212797 -0.015742535 0.00042329455 0.09917207
0.018454125 0.012609817 0.017629141 -0.0114746755 0.0027216673 -0.09302415 0.082882784 -0.001586097
-0.012349871 -0.011447023 0.049003486 0.01149619 0.029250171 -0.05444156 0.028263973 0.062831394
-0.022723304 -0.004050211 0.069330245 -0.052015286 0.059551213 0.01856099 -0.03629902 -0.014718349
0.033247247 -0.051687192 0.004083626 -0.08567181 0.043704305 -0.017143318 0.0076104505 -0.048549958
0.05471681 0.008479628 -0.020045448 0.030838192 -0.026713533 0.056074407 0.003160056 -0.03728529
0.035596747 0.032357533 -0.024228768 -0.0343967 0.06482823 0.003892346 -0.015492172 -0.06298743

base.mlp.fc1.2.weight f4 [64]
00000000: c083 7c3f cdd0 7e3f a168 763f 765a 7d3f
00000010: 4d2b 803f 9a36 813f 6a4a 783f 8493 823f
00000020: 9ad6 7e3f c780 773f b6e7 7d3f 585d 743f
00000030: 6c70 7d3f 5b6a 823f d439 7a3f f28c 723f
00000040: 4bb1 753f 259e 7a3f 7a72 713f 22e3 7a3f
00000050: 6ae4 7b3f 58f0 833f 9388 833f d00b 7e3f
00000060: 7e76 823f 9baf 7d3f 289c 713f dade 683f
00000070: 08d0 703f 3bb2 7f3f 4aea 823f d26d 723f
00000080: f42e 833f 3db2 7b3f 0d86 7c3f 3fa3 793f
00000090: d6c0 7f3f 2430 7d3f 5133 7b3f 8a42 803f
000000a0: a8fb 7c3f ee0c 6f3f 42fd 7c3f 03b7 7c3f
000000b0: 41ee 793f 0a7e 773f a231 713f e37e 7a3f
000000c0: 1645 723f 524b 723f 34fa 7c3f 9672 6c3f
000000d0: 860f 7b3f 6cd1 813f ae49 783f da6d 723f
000000e0: b66e 803f 7e1d 7a3f 4ac6 783f 8575 7a3f
000000f0: b3b7 803f 0ac0 6f3f ece3 7a3f cbca 803f
0.98638535 0.99537355 0.962534 0.9896616 1.0013214 1.0094788 0.96988547 1.0201268
0.99546206 0.96680874 0.9918169 0.9545493 0.9899967 1.0188707 0.9774449 0.94746315
0.9597365 0.9789756 0.943153 0.9800283 0.9839541 1.0307722 1.0276054 0.99236774
1.0192411 0.9909608 0.943789 0.90965044 0.9406743 0.99881333 1.0227749 0.9469882
1.0248704 0.98318845 0.98642045 0.9751472 0.9990362 0.9890158 0.9812518 1.0020306
0.98821497 0.93379104 0.9882394 0.98716754 0.9762917 0.96676695 0.9421636 0.97849864
0.94636667 0.9464618 0.9881928 0.92362344 0.9807056 1.0142035 0.96987426 0.9469887
1.0033786 0.9770125 0.97177565 0.9783557 1.005606 0.93652403 0.9800403 1.0061888

base.mlp.fc1.2.bias f4 [64]
00000000: f7fa 62bd 3218 9d3c 9d96 83bd e308 363d
00000010: 765a 833c 2140 b9bd 84e7 3cbc 901c 503e
00000020: 9ed8 3ebd be3e 8dbd 4c7c 12bd 89d3 d63b
00000030: db78 223d 6973 ec3b 1f2c 9d3b 0f84 913d
00000040: 8ed2 453c 0778 d73c 9470 01ba f33d e1bc
00000050: c410 fdbb 5e32 d9bd 2459 923d 5545 343d
00000060: a0d8 bcbc 6f11 f0bc 9789 8c3c ddc0 4c3c
00000070: 7c31 313c a03a 80bd c91b 2a3c 7aab 9c3d
00000080: d9e1 16bd ad77 af3b f27f 943d 97ae 62bd
00000090: 764e 4a3d a27f 47bb 50e1 6cbd 3193 2ebd
000000a0: b86b 843c ba2b 3abd d7a6 543b a2e9 bfbd
000000b0: 9a4b 593d 2824 3dbc 821d 313c 4013 c9bb
000000c0: b4ba 883d d118 fbbb b631 79bc 4e01 bc3c
000000d0: 6e8d adbc c37b 773d eb74 083b 590a edbc
000000e0: d491 483d 821f 073d 862c f7bc c492 e7bc
000000f0: d7f1 733d 05c1 db3c fb0e d6ba e7c0 97bd
-0.05541512 0.019176576 -0.064252116 0.04444207 0.016034346 -0.09045435 -0.011529807 0.20323396
-0.0465933 -0.06896733 -0.03576307 0.0065559787 0.039666038 0.0072159064 0.0047965194 0.07105266
0.012074126 0.02630235 -0.0004937735 -0.02749536 -0.007722946 -0.1060531 0.071459085 0.044011433
-0.023052514 -0.029305188 0.017155452 0.012497154 0.010815021 -0.06261182 0.010382601 0.07649894
-0.03683648 0.0053548426 0.07250966 -0.055342283 0.049391232 -0.0030441065 -0.057832062 -0.04262084
0.016164646 -0.045451857 0.0032448077 -0.09370734 0.053050615 -0.011544265 0.010810258 -0.006136328
0.06676236 -0.0076628705 -0.015209606 0.02294984 -0.021185603 0.060420763 0.0020821642 -0.028935598
0.048967198 0.032989033 -0.030172598 -0.028268225 0.05955681 0.026825437 -0.0016331369 -0.0740984

base.mlp.fc_h.0.weight f4 [64, 64]
00000000: 6a0e 0d3e 2f99 04bc 5f78 8bbe 1eee 593e
00000010: 5f07 f93e 8310 083e 9e58 d7be a1de 0d3c
00000020: 2634 d83e 6f6b 3c3e cd80 9ebc 6ad7 ba3d
00000030: 1abd 363d 5199 47be cb7c c8be 65fe 82be
00000040: 9394 b43d ccc3 7cbe 6b89 8e3e 1d09 bbbe
00000050: b388 e6bd 8c8e b8be e479 85be 6fe3 863e
00000060: ff5c 9abe 8d7f 363e b610 5e3e 7422 2f3d
00000070: fadd 2fbe 0707 b0bd a0dd 653d 6097 c23d
00000080: 626b 48be eb1a 663e 194b 943e e3a0 d43d
00000090: 2ad0 f1b9 065d f63d 94ae e03d bee8 64be
000000a0: de3a 12be 0ea3 25be f14e ce3d 4622 ed3b
000000b0: ebf8 313e 0054 83be 10e0 233d e9a3 48be
000000c0: 54e8 873d eee2 473e 9e5d 873c 667b e7bc
000000d0: a0b3 743e a8f8 d23d 4ea7 aabd c79c 69bd
000000e0: c9f8 6abe 697a 1c3e c972 23be feae a83d
000000f0: 235f 1ebe 225a 973e 3ef5 73be 4102 a0be
00000100: 7f3d 69be f256 c9bc e115 afbd 9f1c 80be
00000110: de71 cabd 7954 62be 11ca 6a3e c667 cd3e
00000120: a051 153d 35e9 edbd 28d9 07be 7a0b 8b3e
00000130: 6b62 2b3d c789 34be cec9 903e 544f 6dbd
00000140: 259f a63e 159c 6cbe f1f1 8fbc 34d7 8bbe
00000150: 7ead 833d 11c6 923e 1a12 0b3e e992 4bbe
00000160: 792e 5d3d 275b ec3d 4fc8 243d bbc7 313e
00000170: 07ed 5bbe 008d 84bd 60ea 75bc d328 603e
00000180: 0144 c3bd 7152 863e 3bcb 503e a74c 2cbc
00000190: 40a5 913e 96b1 3cbe 37cd cfbe 3050 04bc
000001a0: 89fe cdbd a367 1fbe 38e7 8c3e 4076 2d3c
000001b0: 170f 1b3d 0c7f ba3e 8f51 01bd dc59 88be
000001c0: 715b 863e e8f2 603e dd41 efbd 22ea a7bd
000001d0: d576 2c3b 4fb0 bb3e 6e2b 783e 3e69 173f
000001e0: 5cfa 3f3e 9c72 88be 3f85 063e 587f 733d
000001f0: ddf4 3cbc e229 473e e4a5 7dbd 63b1 88be
00000200: bcda d73e ddf3 7bbd 98f2 d43d b2e0 11be
00000210: 34ba a73c 5d05 be3e cea4 923d 0fba 293d
00000220: ab40 d83d 2940 5d3e da7c 1fbd 5999 87bc
00000230: ebde d4bd c6b5 933d 656e 95bd 2e05 87bd
00000240: d0f8 003e c13c 1abe 924e bf3e bbbc e1bd
00000250: 8329 063e 28e7 a6bd a9f7 7a3e 1597 58bd
00000260: 5109 52bd fd04 4abd f49c 3f3e 3ac9 be3e
00000270: 2946 b93e e5e9 f13c 13be 263d 7163 083f
00000280: 8f07 48be 8308 07be b27f 0abd 95b6 893e
00000290: 5c21 46be 341f 46be 0953 71be c1dc 5cbe
000002a0: ce20 0fbe bd59 00be 315d aabe 6dad c5bd
000002b0: 091e edbd d85e 863e 3a6f c43e 1b36 3bbe
000002c0: fef8 20be 944c abbe 0eb9 45be 0622 afbe
000002d0: c600 0a3e 9d92 63be 30c8 483d 4be4 cf3c
000002e0: 08c0 e23e ff69 af3d 5c64 0cbd ad7f 80bd
000002f0: 07fe 4dbd a1d6 20bd e658 6d3e 4a78 a93e
00000300: 9007 f03d 35dc 34bd 5b97 693c a87d 63be
00000310: eece 933e 5a95 583e 8e45 f5bd 0620 04be
00000320: 1f0f c33e 8813 b63e 6a1a 273e b7a9 5bbd
00000330: efee 69bd e2bb 41be b1b6 183e cb46 df3e
00000340: 5187 443e d47a 463e b833 6ebd 0645 e1bd
00000350: 7527 2bbd f4f2 72be 6cdc 9ebb 7c7c edbe
00000360: ba9a 28bd fb78 dbbd 087a 92be 70a8 0ebe
00000370: b537 72be f039 fb3d 8622 7dbe c4cc 4abe
00000380: 5f4e 0d3d 54ea 883e f572 143e e7e4 893d
00000390: 583d 44be f929 fbbd f7ee 303c fdf6 f93e
000003a0: 9577 693e 0b24 c23d 97c4 7bbd 1ec9 51be
000003b0: c764 793e d1a7 6dbb f461 393d 9fb8 61be
000003c0: ccdc b5bd 36be d63c 6099 1d3e da16 22bc
000003d0: 52b7 42be 5830 a6be 689c 4d3e f5cc 71be
000003e0: fcd7 ca3e 9d2d d1be b7ef 3a3e d102 10bd
000003f0: 3bb3 8abc 003d 2b3e 7603 0e3e c06b 88be
0.1377503 -0.008093162 -0.27240273 0.21282241 0.48638436 0.13287549 -0.42059797 0.008659036
0.42227286 0.18400358 -0.019348526 0.09123118 0.044613935 -0.1949208 -0.3915771 -0.25584713
0.08817401 -0.24684066 0.27839217 -0.3653039 -0.11256542 -0.36046255 -0.26069558 0.26345393
-0.30149075 0.17822094 0.21686062 0.042757466 -0.17174521 -0.0859509 0.05611956 0.09501529
-0.19572213 0.22471206 0.28963545 0.10382249 -0.00046122196 0.120294616 0.10970798 -0.22354409
-0.14280269 -0.16175482 0.10073651 0.0072367517 0.17380111 -0.25650024 0.040008605 -0.19593777
0.0663611 0.1952016 0.016524132 -0.028257083 0.23896646 0.10301334 -0.08332692 -0.05703428
-0.22946467 0.15281071 -0.15961756 0.08236502 -0.1546598 0.29560953 -0.23824021 -0.3125172
-0.22777365 -0.024577592 -0.08549095 -0.25021836 -0.09885 -0.22102536 0.22928645 0.40118235
0.036454797 -0.11616746 -0.13266432 0.27157193 0.041841906 -0.17630683 0.28278965 -0.05793698
0.32543293 -0.23106416 -0.017571421 -0.27312624 0.064295754 0.28666738 0.13581124 -0.1988026
0.053999398 0.115408234 0.04023009 0.17361347 -0.21477138 -0.06472206 -0.015009493 0.21890573
-0.09534455 0.26234773 0.20390026 -0.010516322 0.28446388 -0.18427119 -0.40586254 -0.008075759
-0.10058314 -0.15566878 0.27520156 0.010587275 0.037856188 0.36425054 -0.03157192 -0.26631057
0.2624164 0.21967661 -0.11682484 -0.08198954 0.0026315947 0.3665795 0.24235317 0.5914496
0.18747848 -0.2664994 0.13136767 0.059447616 -0.011532989 0.19449571 -0.061925784 -0.26697835
0.4215907 -0.061511863 0.103978336 -0.1424587 0.02047453 0.37113467 0.0716034 0.041437205
0.105592094 0.21606506 -0.038937427 -0.016552614 -0.10394081 0.07212405 -0.07296447 -0.06592785
0.12594914 -0.15062238 0.37364632 -0.110223256 0.13101773 -0.08149558 0.24508537 -0.052878458
-0.051278416 -0.049321163 0.18712217 0.372629 0.3618634 0.029530475 0.040708613 0.53276736
-0.19534133 -0.1318684 -0.033813186 0.26897112 -0.19348663 -0.1934784 -0.23566832 -0.21568586
-0.13977358 -0.12534232 -0.33274224 -0.09652219 -0.115779944 0.26244235 0.3836611 -0.18282358
-0.15719983 -0.33456862 -0.19308874 -0.34205645 0.13476858 -0.22223897 0.04901904 0.025377413
0.44287133 0.08565139 -0.034275398 -0.06274352 -0.050291087 -0.039267186 0.23178443 0.33099586
0.117201924 -0.04415532 0.014257277 -0.22215903 0.28868812 0.21150723 -0.11976157 -0.12902841
0.38097474 0.35561776 0.1631867 -0.05362865 -0.05711263 -0.18919328 0.14913441 0.43608698
0.19192244 0.19382793 -0.05815479 -0.10999493 -0.041785676 -0.23725492 -0.0048480537 -0.46384037
-0.041163184 -0.107164346 -0.28608727 -0.13931441 -0.23654063 0.1226691 -0.24720201 -0.19804674
0.03449857 0.26741278 0.14496978 0.06733113 -0.19164026 -0.12263865 0.010799161 0.4882125
0.22799523 0.09479531 -0.06146678 -0.20486876 0.2435485 -0.0036263356 0.04525943 -0.22043084
-0.08880004 0.026213747 0.15390539 -0.009893144 -0.19015244 -0.32458758 0.20079195 -0.23613341
0.39617908 -0.40855113 0.18255506 -0.035158936 -0.016931167 0.16722488 0.13868508 -0.26644707

base.mlp.fc_h.0.bias f4 [64]
00000000: 0000 0000 0000 0000 0000 0000 0000 0000
00000010: 0000 0000 0000 0000 0000 0000 0000 0000
00000020: 0000 0000 0000 0000 0000 0000 0000 0000
00000030: 0000 0000 0000 0000 0000 0000 0000 0000
00000040: 0000 0000 0000 0000 0000 0000 0000 0000
00000050: 0000 0000 0000 0000 0000 0000 0000 0000
00000060: 0000 0000 0000 0000 0000 0000 0000 0000
00000070: 0000 0000 0000 0000 0000 0000 0000 0000
00000080: 0000 0000 0000 0000 0000 0000 0000 0000
00000090: 0000 0000 0000 0000 0000 0000 0000 0000
000000a0: 0000 0000 0000 0000 0000 0000 0000 0000
000000b0: 0000 0000 0000 0000 0000 0000 0000 0000
000000c0: 0000 0000 0000 0000 0000 0000 0000 0000
000000d0: 0000 0000 0000 0000 0000 0000 0000 0000
000000e0: 0000 0000 0000 0000 0000 0000 0000 0000
000000f0: 0000 0000 0000 0000 0000 0000 0000 0000
0.0 0.0 0.0 0.0 0.0 0.0 0.0 0.0
0.0 0.0 0.0 0.0 0.0 0.0 0.0 0.0
0.0 0.0 0.0 0.0 0.0 0.0 0.0 0.0
0.0 0.0 0.0 0.0 0.0 0.0 0.0 0.0
0.0 0.0 0.0 0.0 0.0 0.0 0.0 0.0
0.0 0.0 0.0 0.0 0.0 0.0 0.0 0.0
0.0 0.0 0.0 0.0 0.0 0.0 0.0 0.0
0.0 0.0 0.0 0.0 0.0 0.0 0.0 0.0

base.mlp.fc_h.2.weight f4 [64]
00000000: 0000 803f 0000 803f 0000 803f 0000 803f
00000010: 0000 803f 0000 803f 0000 803f 0000 803f
00000020: 0000 803f 0000 803f 0000 803f 0000 803f
00000030: 0000 803f 0000 803f 0000 803f 0000 803f
00000040: 0000 803f 0000 803f 0000 803f 0000 803f
00000050: 0000 803f 0000 803f 0000 803f 0000 803f
00000060: 0000 803f 0000 803f 0000 803f 0000 803f
00000070: 0000 803f 0000 803f 0000 803f 0000 803f
00000080: 0000 803f 0000 803f 0000 803f 0000 803f
00000090: 0000 803f 0000 803f 0000 803f 0000 803f
000000a0: 0000 803f 0000 803f 0000 803f 0000 803f
000000b0: 0000 803f 0000 803f 0000 803f 0000 803f
000000c0: 0000 803f 0000 803f 0000 803f 0000 803f
000000d0: 0000 803f 0000 803f 0000 803f 0000 803f
000000e0: 0000 803f 0000 803f 0000 803f 0000 803f
000000f0: 0000 803f 0000 803f 0000 803f 0000 803f
1.0 1.0 1.0 1.0 1.0 1.0 1.0 1.0
1.0 1.0 1.0 1.0 1.0 1.0 1.0 1.0
1.0 1.0 1.0 1.0 1.0 1.0 1.0 1.0
1.0 1.0 1.0 1.0 1.0 1.0 1.0 1.0
1.0 1.0 1.0 1.0 1.0 1.0 1.0 1.0
1.0 1.0 1.0 1.0 1.0 1.0 1.0 1.0
1.0 1.0 1.0 1.0 1.0 1.0 1.0 1.0
1.0 1.0 1.0 1.0 1.0 1.0 1.0 1.0

base.mlp.fc_h.2.bias f4 [64]
00000000: 0000 0000 0000 0000 0000 0000 0000 0000
00000010: 0000 0000 0000 0000 0000 0000 0000 0000
00000020: 0000 0000 0000 0000 0000 0000 0000 0000
00000030: 0000 0000 0000 0000 0000 0000 0000 0000
00000040: 0000 0000 0000 0000 0000 0000 0000 0000
00000050: 0000 0000 0000 0000 0000 0000 0000 0000
00000060: 0000 0000 0000 0000 0000 0000 0000 0000
00000070: 0000 0000 0000 0000 0000 0000 0000 0000
00000080: 0000 0000 0000 0000 0000 0000 0000 0000
00000090: 0000 0000 0000 0000 0000 0000 0000 0000
000000a0: 0000 0000 0000 0000 0000 0000 0000 0000
000000b0: 0000 0000 0000 0000 0000 0000 0000 0000
000000c0: 0000 0000 0000 0000 0000 0000 0000 0000
000000d0: 0000 0000 0000 0000 0000 0000 0000 0000
000000e0: 0000 0000 0000 0000 0000 0000 0000 0000
000000f0: 0000 0000 0000 0000 0000 0000 0000 0000
0.0 0.0 0.0 0.0 0.0 0.0 0.0 0.0
0.0 0.0 0.0 0.0 0.0 0.0 0.0 0.0
0.0 0.0 0.0 0.0 0.0 0.0 0.0 0.0
0.0 0.0 0.0 0.0 0.0 0.0 0.0 0.0
0.0 0.0 0.0 0.0 0.0 0.0 0.0 0.0
0.0 0.0 0.0 0.0 0.0 0.0 0.0 0.0
0.0 0.0 0.0 0.0 0.0 0.0 0.0 0.0
0.0 0.0 0.0 0.0 0.0 0.0 0.0 0.0

base.mlp.fc2.0.0.weight f4 [64, 64]
00000000: f232 1e3e 4a99 d43b d314 89be 40f6 483e
00000010: ebc4 e93e e3c6 893d cbcb ddbe eee7 903d
00000020: 6713 e43e 6c3a 333e ecf1 09ba e9ce a53d
00000030: 5a42 103c 3937 04be f435 d2be ed4d 65be
00000040: 96e6 fa3d 3b9e a8be d106 403e f348 d1be
00000050: 9095 10be 1808 b0be 2120 90be 0422 793e
00000060: 4b6f a2be 822c fd3d eda7 293e 2130 88bc
00000070: e1bf 6abe 39c4 b0bd 38a9 b53d 5cb3 373e
00000080: 6ffe 3ebe a124 213e 1db4 ac3e 0f20 893d
00000090: 4ca9 903d 068b 253d ceb6 8d3d 30f5 4abe
000000a0: 98a7 14be 9697 1ebe 1c9f 173e 6345 07bd
000000b0: 157e 353e 41b0 4fbe d386 a53d 5974 1bbe
000000c0: 69c1 7a3d 2acb 293e d406 17bd 807a 29bd
000000d0: df75 923e 20ae 283e 105d a7bb 0341 19be
000000e0: 2235 72be 034a 403e 8609 cebd cb3f 853d
000000f0: af5e 9dbd ae79 9d3e 1472 86be 36b3 6dbe
00000100: 08bb 67be d59f 65bd bea8 86bd dbb1 66be
00000110: 2785 d4bd dfb2 92be 5944 113e 11e9 d93e
00000120: 1557 b6bb a708 18be 0b53 13be dc9d 973e
00000130: ad21 763d 142f 27be 7d47 8c3e b688 31bd
00000140: 5f80 aa3e b062 11be 6e3d 723c 1074 6fbe
00000150: 460c 973d 4aab 8d3e eae4 5c3d 913c 3abe
00000160: 511d 333c ee6f d03d 2ed6 0e3d 2aa9 333e
00000170: a82b 38be 6c00 99bc 7321 03bd 7e4c 653e
00000180: cdff b7bd b9b8 813e 2eac 703e bfde 00bd
00000190: 684d 823e 296c 4dbe cacf c2be 1a77 8ebd
000001a0: 914a acbd 1be1 11be 9a13 933e dad1 dbbc
000001b0: b347 cd3c 0044 c63e 908e 84bb e2da 85be
000001c0: 1af4 913e 86ee 453e 46ed e8bd aee2 b4bd
000001d0: e8ad e9bc be75 a63e 29aa 733e 51a2 103f
000001e0: 3831 623e 116b 8bbe 3c90 2a3e 35de c23c
000001f0: 8d79 353d a3b4 503e 44e1 77bd d4b6 81be
00000200: 22ad d33e 260c 20bd f572 093e f1b9 04be
00000210: bb47 243d a869 c23e f80a dc3d 1173 783d
00000220: 7d7d 693d 5cb0 6b3e c5be e9bc d496 40bd
00000230: e10f d3bd 7f73 ab3d 1d0c 5fbd ba37 f6bc
00000240: 3848 f63d 7555 d3bd 7a99 c53e f4f8 fdbd
00000250: 8224 d03d e0bb e9bd f15c 763e 14e3 53bd
00000260: bf8d 48bd 3d52 48bd f537 2a3e 589f c13e
00000270: 7adb b23e 6ea1 a13c 1253 083d a739 fe3e
00000280: d674 40be 9854 09be 177b a1bc 2604 703e
00000290: 3591 66be 9893 58be 9495 62be cc21 5cbe
000002a0: 9297 c8bd e426 21be 65f2 96be 9e2c 96bd
000002b0: cc0f efbd 3150 8b3e c598 b73e 638e 48be
000002c0: 8369 06be 3410 abbe d2e1 2abe 6910 a5be
000002d0: 4271 0f3e 9886 69be adbe fe3c ed0e fa3b
000002e0: a505 eb3e 338d 783d 86f8 60bc 76bb cfbd
000002f0: 3c1c 0bbd c68b debc 72bd 683e f5ac b43e
00000300: 8d2e ea3d 8bb2 c3bc b2f0 ad3a 11da 25be
00000310: 76c9 963e 5999 813e c5bb 9dbd a793 30be
00000320: e766 b23e 0589 a93e f003 3c3e 98bf a4bd
00000330: 1c7b cfbd c947 61be 3186 dd3d 54f3 ee3e
00000340: 925f 2b3e 929a 763e d4c5 5cbd 85f3 b8bd
00000350: f57d f3bc bbf9 85be 5a23 213d 9bd6 dcbe
00000360: 4563 abbb ddc6 c0bd e00a 82be 92a2 fdbc
00000370: e74e 50be 1b66 013e 39b7 40be 63ad 4dbe
00000380: c373 c93c 7679 8b3e 169d 373e 5f01 3e3d
00000390: a15a 67be 1bf2 10be 34d4 c2bc 5384 e43e
000003a0: 8f59 943e a621 373d 2943 05bd 47b9 15be
000003b0: a517 673e e694 17bd 61fc c83c 8f24 8bbe
000003c0: c53c dabd 8321 913d 9715 313e 758a 133d
000003d0: 1174 2cbe d2cd babe 4973 453e ba04 6dbe
000003e0: d2ea dd3e e810 e0be 471f fd3d 6f65 3e3b
000003f0: 9f1f e9bc dd40 333e 510f 043e 80ee 9dbe
0.15449122 0.006488 -0.267737 0.19625187 0.4565805 0.06727388 -0.43319544 0.07075487
0.44546053 0.17502755 -0.00052621844 0.080961056 0.008804882 -0.12911691 -0.41056788 -0.22393008
0.12251012 -0.3293322 0.187526 -0.40875968 -0.14119554 -0.34381175 -0.28149512 0.24329382
-0.31725535 0.12362005 0.16567965 -0.016624512 -0.22924758 -0.086311765 0.088701665 0.17939514
-0.18651746 0.15736629 0.33731166 0.06695568 0.07063541 0.040415786 0.06919633 -0.19820094
-0.14517057 -0.15487513 0.14806789 -0.033025157 0.17723878 -0.2028208 0.08082356 -0.15181102
0.061219607 0.16581407 -0.036871746 -0.04137659 0.28605554 0.16472673 -0.0051075295 -0.14966206
-0.23653081 0.18778233 -0.1006041 0.06506308 -0.07684075 0.30756897 -0.2625891 -0.23212895
-0.2262994 -0.05606063 -0.06575154 -0.22528784 -0.10376959 -0.28652093 0.14186229 0.42560628
-0.00556458 -0.1484705 -0.14387147 0.29612625 0.06009071 -0.16326553 0.2739829 -0.04334327
0.33301064 -0.14197803 0.014785154 -0.23384118 0.07375388 0.27669746 0.053929247 -0.18187167
0.010932283 0.10177599 0.034872226 0.17545 -0.17985404 -0.018676959 -0.03201432 0.2239246
-0.08984337 0.25336245 0.23503181 -0.031462427 0.2544968 -0.20060791 -0.38049155 -0.069563106
-0.0841266 -0.14246027 0.28725892 -0.026833463 0.025058603 0.38723755 -0.004045315 -0.26143557
0.28506547 0.1932927 -0.11373381 -0.08832298 -0.028525308 0.32511705 0.2379538 0.56497675
0.22089088 -0.27230123 0.16656584 0.023787597 0.044305373 0.20381407 -0.060517564 -0.253348
0.41343027 -0.039074086 0.13422759 -0.12961556 0.04010747 0.37971234 0.107442796 0.06065661
0.05700444 0.23016495 -0.028533349 -0.04701884 -0.10305763 0.083716385 -0.05445491 -0.03005587
0.120254934 -0.10319034 0.38593656 -0.12401 0.10163213 -0.114127874 0.24058892 -0.05173023
-0.048963305 -0.048906554 0.16622908 0.37816882 0.34933072 0.019730296 0.033282347 0.4965336
-0.1879457 -0.13411176 -0.019712014 0.23439083 -0.2251633 -0.21150053 -0.22127372 -0.21497267
-0.09794535 -0.15737492 -0.29481807 -0.07332729 -0.11672935 0.2720962 0.3585874 -0.19585566
-0.13126187 -0.334108 -0.16687706 -0.32239082 0.14008048 -0.2280525 0.03109678 0.007631174
0.45902744 0.060681533 -0.013731128 -0.10143177 -0.033962473 -0.027166259 0.22728518 0.35288206
0.1143466 -0.023888847 0.0013270585 -0.16196467 0.29450577 0.25312307 -0.0770183 -0.17243825
0.34844133 0.3311235 0.18360877 -0.08044356 -0.10130903 -0.2200004 0.108166106 0.4667002
0.16735676 0.24082401 -0.0538996 -0.09030823 -0.029723147 -0.26167092 0.039340355 -0.4313248
-0.0052303397 -0.0941293 -0.25398922 -0.030961309 -0.20342599 0.12636606 -0.18819894 -0.20085673
0.024591332 0.27241105 0.17931017 0.046388026 -0.22593166 -0.14154856 -0.023782827 0.44632205
0.28974578 0.044709824 -0.032534752 -0.14621459 0.22567613 -0.037007235 0.024534406 -0.2717633
-0.10656122 0.0708647 0.17293392 0.036020715 -0.16841151 -0.36485153 0.19282259 -0.23146334
0.43343216 -0.43762898 0.12359481 0.0029052158 -0.02845746 0.17505212 0.12896468 -0.30846024

base.mlp.fc2.0.0.bias f4 [64]
00000000: e5c5 b73d 4407 263e e9c2 9cbc 2765 4abd
00000010: f35e 5ebd 10d4 7e3c 9124 783c 0e48 873d
00000020: 6253 773c c993 95ba 5e5d 88bd fcf1 e1bc
00000030: 82dd be3b 9e47 f5bc 34ce bbbc 5161 c93c
00000040: a9de 29bc 83de 053d b496 0dbc bd56 09bd
00000050: 7a2c 43bc b4c3 61bc fb14 c53c 4afd dbbc
00000060: f0ee 95bb 7565 98ba 314e adbc 6ab8 843c
00000070: 4f00 70bd e04b 5eba 8e97 3b3d d2bc febc
00000080: 7bc8 dabb cbc1 8d3d d401 7bbc 598d 593c
00000090: c118 503c 4f3d a93c c29a 85bd cfde 19bd
000000a0: 1a99 6c3d 60c2 0fbd 8364 553d a3ac 0abe
000000b0: b8d2 2dbc eb8e a1bd dc79 9c3d a0c4 6dbd
000000c0: 6806 6a3b 6aa5 293d f9b8 da3d 959e 5bbd
000000d0: 43d7 24bb b950 393d 8b4b 17bb 6195 c03c
000000e0: 5f47 95ba 12f8 acbc 55c5 2b3d 5b2e ceba
000000f0: 4e04 89bd db16 4b3d fbed d43c 5a42 a73d
0.08973292 0.16213709 -0.01913591 -0.049412873 -0.05428977 0.015553489 0.015145437 0.0660554
0.015095564 -0.0011411841 -0.066584334 -0.027581207 0.0058247456 -0.029941376 -0.022925474 0.024582537
-0.010368028 0.032682907 -0.008641887 -0.033529986 -0.0119124595 -0.013779569 0.024057856 -0.026854176
-0.0045756027 -0.0011626916 -0.021155449 0.016201217 -0.058594044 -0.0008479934 0.04579883 -0.031095896
-0.006676731 0.06921729 -0.01532026 0.013278329 0.012701214 0.020659117 -0.06523658 -0.037566002
0.057763197 -0.03509748 0.05209781 -0.13542418 -0.010609321 -0.078885876 0.0764043 -0.058048844
0.0035709385 0.041417517 0.10679812 -0.053618032 -0.002515272 0.045243 -0.0023085799 0.02350873
-0.0011389068 -0.021114383 0.041936237 -0.0015730368 -0.06690274 0.049582344 0.025992384 0.081669524

base.mlp.fc2.0.2.weight f4 [64]
00000000: b9ba 7b3f 26f9 603f 2d91 763f 9908 733f
00000010: cdb8 6b3f 6721 5a3f fd12 723f c1e1 723f
00000020: cfe3 753f e3c4 763f 21c8 6f3f 3c44 693f
00000030: 13b4 6c3f dcdd 643f ce09 5f3f 0600 793f
00000040: c115 673f 4994 653f 342a 6a3f e964 773f
00000050: 6e2b 6d3f a832 643f 4344 7b3f 22ad 713f
00000060: 8c91 6e3f bdef 643f b0d5 713f f18b 753f
00000070: ff08 733f 22e3 723f 2445 773f 0e9e 803f
00000080: 0835 5f3f 0865 6e3f 7621 623f 2132 693f
00000090: cad8 6c3f a749 723f 7eca 6d3f 051e 703f
000000a0: 484f 6e3f 8c7c 6c3f dd7d 723f 5846 7a3f
000000b0: 7625 733f 6cbe 643f 30b2 6c3f 96c7 733f
000000c0: df66 693f bf09 6e3f 0f8f 6e3f bab1 6d3f
000000d0: 8014 753f e785 713f 9090 733f da9f 633f
000000e0: 8b28 6b3f 6bba 6f3f ddac 663f 2f68 7b3f
000000f0: 50f6 683f dcdc 713f b6a7 6f3f c804 683f
0.9833179 0.8788017 0.9631527 0.94934994 0.9207886 0.8520722 0.94560224 0.94875723
0.96050733 0.96394175 0.9366475 0.9111974 0.9246227 0.8940103 0.87124336 0.9726566
0.9026757 0.8967939 0.91470647 0.9663835 0.92644393 0.89139795 0.98151034 0.94404805
0.93190837 0.8942831 0.94466686 0.9591666 0.949356 0.9487783 0.96589875 1.0048234
0.87190294 0.9312291 0.8833231 0.91092116 0.92518294 0.94643635 0.92887104 0.93795806
0.93089724 0.92377543 0.947233 0.97763586 0.94979036 0.8935306 0.9245939 0.9522642
0.91172594 0.9298362 0.9318704 0.92849314 0.95734406 0.94344944 0.9514246 0.8891579
0.9185874 0.93643826 0.9010752 0.98205847 0.91000843 0.9447763 0.9361528 0.90632296

base.mlp.fc2.0.2.bias f4 [64]
00000000: e34c 9b3d ef97 0e3e ecd9 16bc b37e babc
00000010: 97e9 68bd 4d02 cb3b f2ff 0c3d 17d4 703d
00000020: b3cc 7f3b bf8c fd3b 25d9 c0bd 0ddc 31bc
00000030: d068 453c 1bc1 373a fe18 85bd c3da bd3c
00000040: acd6 debc d6c0 e53c 154a b1ba 0d99 dbbc
00000050: de46 7b3b dea3 67bd 79c2 133c 7979 903a
00000060: 0986 92bc 2f28 adbc 8957 5bbd aee3 583c
00000070: b0bf 8ebd 8399 a83c 0173 ca3c 802a 36bd
00000080: 4896 e63b 3e48 1d3d e5ee f5bc acce 33bb
00000090: 9aa0 94bc 2454 b43c cc54 aabd 3482 1dbd
000000a0: a17c 373d 7224 bbbc 2dd8 273d 2ec6 09be
000000b0: 6cdc d7bc be23 1ebe 522b 993d 5d1e 23bd
000000c0: 1d5b 05bc 75e7 b83c 821d a93d 8625 2dbd
000000d0: 610d 5ebc f5f6 573d cd90 9bbb 7433 183d
000000e0: 842d 273b 2299 c0bc 6e8d 323c 5e3a 10bc
000000f0: c289 43bd e3b8 493d b010 403d 9f4a 803d
0.07583024 0.13925146 -0.00920723 -0.022765493 -0.056863394 0.0061953426 0.034423776 0.058796015
0.0039031922 0.0077377255 -0.09416417 -0.010855687 0.012048915 0.0007009671 -0.064989075 0.023175603
-0.027201973 0.028046053 -0.0013526106 -0.026806379 0.00383418 -0.05655276 0.009018534 0.001102253
-0.017886179 -0.021137325 -0.053550277 0.013237877 -0.06970155 0.020581013 0.024713041 -0.044474125
0.007036958 0.038398974 -0.03002114 -0.0027436418 -0.018142987 0.022012778 -0.08316955 -0.03845425
0.04479659 -0.022844527 0.040977646 -0.13454506 -0.026350223 -0.15443322 0.07478966 -0.03982388
-0.008139399 0.022571305 0.08257581 -0.042272113 -0.0135529945 0.05272575 -0.004747486 0.037158445
0.0025509307 -0.02351052 0.010897977 -0.008802978 -0.047738798 0.049248587 0.046890914 0.06264233

rnn.rnn.weight_ih_l0 f4 [192, 64]
00000000: 2008 82bd 2e09 26bd fe97 e63d 8f78 03bd
00000010: 32bd 1a3d 5ee0 aabc 3677 58bc 3179 1bbe
00000020: 135d 7ebc 20b2 28be 6ebe afbd 3c15 7fbd
00000030: 03ad 993d b014 833d bf24 10bd db06 b23d
00000040: eaec 93bd 8ec8 823d a711 9c3c 7c4e cabd
00000050: b66d 70bd 7953 92bc d399 203c 8363 a5bd
00000060: bf70 7abe cf58 fd3c aa17 933d dc9a c7bd
00000070: f8f6 3f3e a6df 8fbd 47e4 d63d 8265 573d
00000080: b827 0cbd 589a 023d 813d aa3c 6891 223b
00000090: d299 973d a016 633c 5177 063d 397d df3b
000000a0: f145 303c fbf5 bd3d 6cdd 623d 3a66 f6bd
000000b0: 4d48 573d 3f90 023d 5cf2 5e3d 6371 b53d
000000c0: 0f04 07bd b6ce acbd 1168 e83b b86f 313d
000000d0: bcfd 523d 24de 5fbd 3fbf a53d 6c05 03bd
000000e0: 688f 01bd 2440 a43d 0ac0 b53c cef7 c8bd
000000f0: d58e 44be 8672 2bbe 0e85 bf3d 2c98 dd3d
00000100: a90a 4f3d d7ce 8b3d cc37 253d 9d65 a33b
00000110: 0e44 6f3c 466d ff3c 8be0 223e 9d34 743c
00000120: 9d04 d2bd 822f 5cbe ac2c 8abd 6846 f7bc
00000130: 3bd5 7bbd bb8b 2ebc 66fb 48bd 0683 92bc
00000140: d753 6abd a493 453d 4df7 7e3c 6abe 2fbe
00000150: f20f 49bd c70d 59bd 27e6 1abc bb1e 0c3e
00000160: 9afa 103d df09 133c 613c 523e db27 8f3d
00000170: 23c8 76bc 9532 613d 9236 d93b 6d43 17be
00000180: 5462 eebc 70f7 903d 309c dabd 4b61 f6bc
00000190: 78bc 8d3d 82dd 8bbd 87c9 1abd 2991 4f3d
000001a0: 2985 733d bae7 80bc 5094 193d fb11 4fbd
000001b0: 7ce8 54bd dcd7 a6bd 0b5f 6b3e 9cdc 20bd
000001c0: 2272 843d fcd8 52bd 5f2f 45bd 5b97 7bbc
000001d0: 1356 223e 97bc abbd 29fe 913d 19ba de3d
000001e0: 4ae4 71bd 4639 cabc 7da7 5fbd e35c 83bd
000001f0: 6a18 b53d 988f dabd dd4d 913c 3f6a 3f3c
00000200: 0bbc 1a3d fe7c d43d 0012 9cbd 6aef 69bd
00000210: be6e b9bb 4f6b a2bb 3c30 873d 9c67 333e
00000220: da3f ae3d b1bf c53d 1187 0fbd 5538 e1bd
00000230: 1e24 d7bd f510 f93b c68d e03d b599 01be
00000240: a8b3 593d 0ad3 7d3c 0194 053e 362d 3f3d
00000250: 23d8 163e a565 98bd 78f1 083e eec8 d4bb
00000260: 6013 7e3d 4449 613d f47b 1bbe 6d38 cb3d
00000270: c276 87bd 9400 68bc ad97 c63d bfb7 9f3d
00000280: 12ea 733d 265a 9bbd bed6 cfbd 8837 57be
00000290: 8d41 87bd b850 533d 0067 44be 4536 bf3c
000002a0: abc1 25bd 16fe febd c611 95bd 9e12 bb3d
000002b0: 1fad f3bc 4c0c 693e a515 55bd 7a2b e23d
000002c0: 1f92 bb3d 888e 203e 73b5 8a3d 141d cbbc
000002d0: 619d 4bbe a2b6 4f3d 5006 84bd 80ed 0dbd
000002e0: 2279 203d 9b7b 453d c700 e53d 342f d23d
000002f0: e323 3a3e e3f8 b2bd ed5e a83c ee17 13be
00000300: ceac 6dbc 560a ec3c 4406 bdbd 84fb 48bd
00000310: cacb 36be dcdc 843d e9f4 4a3d 31b4 1dbe
00000320: 9614 c9bd 3ce1 6ebd 1b99 32bd 7401 94bd
00000330: 09b4 673c 6688 cbbd ce61 edbc 360c c3bc
00000340: 949e 923d d93b 83bd e2e8 9bbc 7034 9dbd
00000350: 6c7c aabc d5e1 0dbe 866b 483e 9ced 613d
00000360: f078 e4bd eec2 c1bb 8bb0 453c 5efb af3d
00000370: 5788 983b 7450 88bc 1e1d 103d a93d aabd
00000380: cd6e 09be 17b6 cabd 9a93 9c3d 0b2b be3d
00000390: 87a4 86bc cfb8 103e fbca f4bc a9e2 c93c
000003a0: a1e7 bfbd 53c5 003e e718 b93c 4d11 443d
000003b0: 32fc 93bd ce44 7c3d 7518 3c3e f859 1c3e
000003c0: 4b1f 8b3d e769 cd3c 32a1 67bd f29a 9f3d
000003d0: 9caf 35be 81d0 d7bb 4168 9ebd b3bc 1c3c
000003e0: 1bb3 403d 1aff 993d 68eb 5a3b 3aae ecbc
000003f0: a4db d6bd 740d 27bd 53a8 9bbd 57ae 10bd
-0.06349206 -0.0405361 0.11259459 -0.032097396 0.037778087 -0.02085894 -0.013212016 -0.1518295
-0.01552512 -0.164742 -0.085812435 -0.06227611 0.075037025 0.0640043 -0.035191294 0.08692714
-0.07222922 0.06385909 0.019051386 -0.09878251 -0.05869838 -0.017862068 0.0098023 -0.08075621
-0.24457072 0.030926136 0.07182248 -0.09746334 0.18746555 -0.070250794 0.10492759 0.05258704
-0.034217566 0.031885475 0.02078128 0.0024805907 0.07402386 0.013860375 0.032828633 0.0068203476
0.010758863 0.09275433 0.055386946 -0.12031217 0.052559186 0.031875845 0.05443035 0.088595174
-0.032962855 -0.084378645 0.007092484 0.043319434 0.05151151 -0.05465521 0.08093118 -0.031987593
-0.031630903 0.08020046 0.022186298 -0.0981289 -0.19195111 -0.16742906 0.0935155 0.1082004
0.050547276 0.06826561 0.040336415 0.0049864785 0.014603628 0.031180035 0.15905969 0.014905122
-0.10254786 -0.21502498 -0.06746802 -0.03018494 -0.06148265 -0.0106534315 -0.049067877 -0.017884742
-0.057208862 0.048236504 0.015561891 -0.17162481 -0.049087472 -0.052991655 -0.009454287 0.13683598
0.035395242 0.008974521 0.20530845 0.06990024 -0.015062365 0.05497988 0.0066288197 -0.14771815
-0.02909962 0.07078445 -0.10674322 -0.03007569 0.06920713 -0.06829359 -0.037789848 0.050675545
0.059453163 -0.015735496 0.037494957 -0.050554257 -0.051979527 -0.08146641 0.22985475 -0.03927289
0.064670816 -0.051476464 -0.04814088 -0.01535591 0.15853147 -0.0838558 0.07128555 0.10875339
-0.059055604 -0.024685513 -0.05460309 -0.06414201 0.08842547 -0.106719196 0.017737323 0.011683046
0.037776988 0.10375403 -0.07620621 -0.05711309 -0.0056589535 -0.00495664 0.06600997 0.17519993
0.085082725 0.09655703 -0.03504092 -0.109970726 -0.10504936 0.0076008984 0.10964541 -0.12656291
0.05314985 0.01549221 0.1304474 0.046673976 0.14730887 -0.07441262 0.13373363 -0.0064936792
0.062030196 0.055001512 -0.15184003 0.09922872 -0.06614448 -0.014160294 0.096968986 0.07798719
0.0595494 -0.07585554 -0.10148381 -0.21017277 -0.066043 0.05159065 -0.19179916 0.023341307
-0.0404679 -0.12450807 -0.07278781 0.0913441 -0.029745637 0.22758597 -0.052022595 0.11043449
0.0915873 0.15679371 0.0677289 -0.024794139 -0.19884254 0.05071128 -0.064465165 -0.034650326
0.03917802 0.048213582 0.11181789 0.102629095 0.18177752 -0.087388776 0.020553077 -0.14364597
-0.014506532 0.028813522 -0.09229711 -0.04906799 -0.17851177 0.06487438 0.04954997 -0.15400769
-0.098183796 -0.05832027 -0.043603044 -0.0722684 0.014142045 -0.09938125 -0.028977301 -0.023809534
0.071591526 -0.064078994 -0.019031946 -0.07676017 -0.020811282 -0.1385568 0.19572267 0.055158243
-0.111558795 -0.00591313 0.012066017 0.08592866 0.004654925 -0.016639926 0.03518402 -0.08312542
-0.13421173 -0.09898012 0.0764534 0.092855535 -0.016435875 0.14132999 -0.029881945 0.024644213
-0.093703516 0.12575273 0.022594882 0.04786806 -0.07225837 0.061589055 0.18368705 0.15268695
0.06793078 0.025074912 -0.056550212 0.07793225 -0.17742771 -0.006586135 -0.077347286 0.009566474
0.04704581 0.0751936 0.0033404473 -0.028891671 -0.10491112 -0.040784314 -0.07600465 -0.035322513

rnn.rnn.weight_hh_l0 f4 [192, 64]
00000000: 2381 b5bd 2001 7f3d 36ad 903e 9910 013e
00000010: 8f82 35bc 90a7 8bbd 05d7 3c3d 5dcd 3e3e
00000020: f460 24bd 63cf 7d3c de06 29bc 37b0 57bd
00000030: 10f2 d63c 6e9f 3c3e 8c9a 90bc 8569 e8bd
00000040: 405c fc3d 436d 8f3c 2406 c6bd 90bd b0bd
00000050: 341e 9e3d ca03 81be d186 443e 66b1 403e
00000060: f95d 143e 2f9a 063e e5ee 743d 57fc 0a3e
00000070: 09a2 36bd 88b0 b8bd c040 863d 7650 0ebe
00000080: 000c b5bb f3aa 5d3d dd45 50bd 99f1 10bc
00000090: 086f 34be f88e babd 9766 55be 54f0 e5bd
000000a0: 447a 3cbe 8cdc 15be a1de 0fbe 4186 913d
000000b0: 5120 7dbd bfe2 963c 6f0a f4bb e322 a6bd
000000c0: c003 97bd 168c f43b fe23 163e 4b90 fd3d
000000d0: 8641 033c 7b3f dabc 475c 3dbc 2084 22bc
000000e0: 6658 fcbd d694 a0bc bbd5 d4bd 3d2f 4d3e
000000f0: 3466 543a 13f1 93bd e2c1 f5bd e0a9 163d
00000100: ebf7 8dbd 8aea 983d 0663 193e 7974 c9bd
00000110: da89 e3bd 0cc2 9f3e a8cf bdbd 1786 033d
00000120: 46fb a53c aad8 643e 0273 533d bb3b c9bd
00000130: 4fcb 683b 8f43 303d 1114 e63d a629 abbc
00000140: c6d4 5bbd 33a5 cebd b967 3b3e e8dd e53d
00000150: e0be 9bbb 0fd1 083e cb7d 583d b58a fb3d
00000160: 0733 68bd 98f6 8abd 91b8 a53d c98e 4ebd
00000170: ac9b c6bd 9856 27be 3e00 163e 108b 48bd
00000180: 2ab2 7a3d 9447 213e b8cc 623d e620 55bd
00000190: 8694 12be d5b1 fc3c c066 5bbe 8b41 5abe
000001a0: 6ee2 72be b114 05be a77d bfbc 033b 28bd
000001b0: cdf8 c4bd dde5 963d 4dde 41be ca41 1e3e
000001c0: 32e3 94bd 95df e9bc 5085 223e 3938 6c3e
000001d0: 32cd 0c3e 6249 6dbe 6ad2 c83d 6f1f 053e
000001e0: 817e b7bd 2759 23be 4d0d 27bd 093c 373d
000001f0: 00a5 503d a3cd 4a3d eb9b ae3d 391d db3c
00000200: 27f3 54be 7893 0c3e 8f98 e53d 8050 02be
00000210: 41a4 15bc 4497 533e de20 2ebd 21d4 e83d
00000220: 17f6 94bd cf0b 5abd cfb7 a9bd e0f6 da3b
00000230: b111 223e e568 c63c 50ba 1c3e 6032 f3bd
00000240: 7f46 b53d de77 953d 3a17 39bd faf4 d4bc
00000250: 2b89 1ebe d84b fc3d 92b7 3c3e 8f0b bbbd
00000260: f6b4 a53d 73bf b9bb a052 863b f67d 773d
00000270: a3a8 16be 7758 a2bd ebb5 da3d 43db a7bd
00000280: 51db 933e 9da0 cbbd 36da 03be 68d4 f4bd
00000290: 3d45 e7bd 81a6 fdbd 429f 4fbe 1b76 b83d
000002a0: 564e 74bd 1de7 90bd 2a8a 4c3d 7a89 db3d
000002b0: 1a1d 09bd f338 12bd 394a 55be 7217 543e
000002c0: 2158 103e 3a7f 433d 56eb db3d fcf9 943d
000002d0: 55e4 08bd 8d59 ffbd e360 1b3c 0005 0fbd
000002e0: 47ad 5cbd b157 89bd 4fe1 ae3d 63a8 dabd
000002f0: 5f7d d9bc 8a7c 33bd 6bdd eebd 2be4 a83e
00000300: 9e93 533a a995 88bd 437f 1f3e cb97 b23c
00000310: 1aef 05bd e1b7 60b7 970a 73bc 48bd 9e3d
00000320: 0807 cabc b5e6 2b3d ecbd a13d 341e 10be
00000330: 701a 8b3c b9a4 f23d 8d28 96bd 1d66 8dbd
00000340: bdb7 233d a172 e53d f727 dc3c f316 ba3d
00000350: b660 fbbd c4b1 d9bc 571f 043e 6bd3 703d
00000360: 50ff 01be a44d 1abd 237d 493d 9a6d 73bc
00000370: eb8b 08bd c41a 6ebd 5657 2d3d 28bf 8cbd
00000380: d9dd d13d 1607 693d 8158 05be 877c 85bd
00000390: 17cf 37be 9aee a63d c13d 19be c526 0bbc
000003a0: 67ab eb3d 4b48 9dbc 4122 90bd 55cc 14be
000003b0: ce52 0e3d feb2 333d 192e 5ebd 4d2b 49bd
000003c0: 2dd2 8fbd 7e0c 6ebd 6e10 88bd 0840 9bbc
000003d0: db2f f7bc cd80 92bd 6a0b ef3d f71f 423d
000003e0: 810d 52bc a870 51be 60fc 79bd cc11 823e
000003f0: 57b6 103e b15b c2bb 4302 37bd 3f0b 8b3c
-0.088625215 0.062256932 0.2825715 0.12603988 -0.011078491 -0.068190694 0.046103496 0.18633027
-0.040131524 0.015491339 -0.010316579 -0.052658286 0.026238471 0.18420193 -0.017651819 -0.11348251
0.12322283 0.017508155 -0.0966914 -0.08629906 0.077206045 -0.25198203 0.19192053 0.18817672
0.14488973 0.13144754 0.05979814 0.13572823 -0.044588123 -0.09018046 0.06555319 -0.13897881
-0.005525112 0.054118108 -0.050847877 -0.008846664 -0.1762048 -0.091093004 -0.20839916 -0.112274796
-0.18406016 -0.14634913 -0.1404977 0.07105685 -0.061798397 0.018418668 -0.007447533 -0.08112123
-0.07373762 0.0074629886 0.14662167 0.12381037 0.0080112275 -0.026641598 -0.011557645 -0.009919196
-0.12321548 -0.01960222 -0.10392328 0.20037551 0.00081023877 -0.07223716 -0.11999871 0.0367831
-0.06932052 0.0746661 0.1497918 -0.098366685 -0.111102775 0.31202734 -0.09268123 0.0321103
0.020261418 0.22348276 0.051623352 -0.09825846 0.0035521572 0.04303318 0.11234296 -0.020893883
-0.053669713 -0.10090103 0.18301286 0.11223966 -0.0047529787 0.13361 0.05285434 0.12282316
-0.05668929 -0.06785315 0.08091844 -0.05042914 -0.09697661 -0.16341627 0.1464853 -0.048960745
0.061205067 0.15749961 0.055371016 -0.052033328 -0.1431447 0.030846516 -0.21425915 -0.21314065
-0.23719189 -0.12996174 -0.023375345 -0.041071903 -0.096177675 0.07368062 -0.18932457 0.15454784
-0.072698966 -0.028548995 0.15871167 0.23068322 0.13750151 -0.23172525 0.09805758 0.13000272
-0.089596756 -0.15951978 -0.04078417 0.04473499 0.050938606 0.049512517 0.08525833 0.026747333
-0.2079588 0.1372813 0.11210739 -0.12726021 -0.009133399 0.20663172 -0.042511813 0.113685854
-0.072735004 -0.053233918 -0.08287012 0.006682262 0.15827061 0.02421994 0.15305448 -0.11874843
0.08851337 0.072982535 -0.045188166 -0.02599572 -0.15482013 0.123191535 0.18429402 -0.09133064
0.08091156 -0.0056685745 0.004099205 0.06042286 -0.14712767 -0.079270296 0.10679229 -0.08196118
0.28878263 -0.09942744 -0.1287621 -0.11954576 -0.11292503 -0.12385274 -0.20275596 0.09006902
-0.05964502 -0.07075331 0.04993645 0.10719581 -0.03347502 -0.035698842 -0.20829095 0.20712069
0.14096119 0.047728755 0.10738246 0.07274243 -0.03342088 -0.12468252 0.009483549 -0.034916878
-0.053876188 -0.06706179 0.08539068 -0.106766485 -0.02654904 -0.04381994 -0.11663326 0.32986578
0.0008071008 -0.066691704 0.1557589 0.021800896 -0.03269873 -1.3394253e-05 -0.014834068 0.07750946
-0.024661556 0.041968066 0.07897553 -0.14074022 0.01698038 0.118478246 -0.07331953 -0.06904242
0.03997015 0.11203504 0.026874525 0.090864085 -0.122743055 -0.026574023 0.1290258 0.058795374
-0.1269505 -0.0376717 0.049191605 -0.014857674 -0.03333656 -0.058130994 0.04231962 -0.06872398
0.10247392 0.056891523 -0.13022043 -0.06517892 -0.17950092 0.081509784 -0.14964963 -0.00849313
0.11507302 -0.019199511 -0.070377834 -0.14531071 0.034746937 0.043871872 -0.05424318 -0.04911356
-0.0702251 -0.058117382 -0.06643759 -0.01895143 -0.030174186 -0.07153473 0.11672099 0.047393765
-0.012820602 -0.20453131 -0.0610317 0.25404203 0.14132057 -0.0059313406 -0.04467989 0.016973136
